{"format": "graph-model", "generatedBy": "2.19.0", "convertedBy": "TensorFlow.js Converter v4.22.0", "signature": {"inputs": {"images": {"name": "images:0", "dtype": "DT_FLOAT", "tensorShape": {"dim": [{"size": "1"}, {"size": "640"}, {"size": "640"}, {"size": "3"}]}}}, "outputs": {"output_0": {"name": "Identity:0", "dtype": "DT_FLOAT", "tensorShape": {"dim": [{"size": "1"}, {"size": "84"}, {"size": "8400"}]}}}}, "modelTopology": {"node": [{"name": "ConstantFolding/PartitionedCall/model_21/tf.math.divide/truediv_recip", "op": "Const", "attr": {"value": {"tensor": {"dtype": "DT_FLOAT", "tensorShape": {}}}, "dtype": {"type": "DT_FLOAT"}}}, {"name": "unknown_165", "op": "Const", "attr": {"value": {"tensor": {"dtype": "DT_INT64", "tensorShape": {"dim": [{"size": "3"}]}}}, "dtype": {"type": "DT_INT64"}}}, {"name": "unknown_166", "op": "Const", "attr": {"value": {"tensor": {"dtype": "DT_INT64", "tensorShape": {"dim": [{"size": "3"}]}}}, "dtype": {"type": "DT_INT64"}}}, {"name": "PartitionedCall/model_21/tf.strided_slice_19/ones_like", "op": "Const", "attr": {"value": {"tensor": {"dtype": "DT_INT64", "tensorShape": {"dim": [{"size": "3"}]}}}, "dtype": {"type": "DT_INT64"}}}, {"name": "unknown_169", "op": "Const", "attr": {"value": {"tensor": {"dtype": "DT_FLOAT", "tensorShape": {"dim": [{"size": "1"}, {"size": "2"}, {"size": "8400"}]}}}, "dtype": {"type": "DT_FLOAT"}}}, {"name": "unknown_170", "op": "Const", "attr": {"value": {"tensor": {"dtype": "DT_FLOAT", "tensorShape": {"dim": [{"size": "1"}, {"size": "2"}, {"size": "8400"}]}}}, "dtype": {"type": "DT_FLOAT"}}}, {"name": "PartitionedCall/model_21/tf.strided_slice_16/StridedSlice/begin", "op": "Const", "attr": {"value": {"tensor": {"dtype": "DT_INT32", "tensorShape": {"dim": [{"size": "3"}]}}}, "dtype": {"type": "DT_INT32"}}}, {"name": "PartitionedCall/model_21/tf.strided_slice_16/StridedSlice/end", "op": "Const", "attr": {"value": {"tensor": {"dtype": "DT_INT32", "tensorShape": {"dim": [{"size": "3"}]}}}, "dtype": {"type": "DT_INT32"}}}, {"name": "PartitionedCall/model_21/tf.strided_slice_16/ones_like", "op": "Const", "attr": {"value": {"tensor": {"dtype": "DT_INT32", "tensorShape": {"dim": [{"size": "3"}]}}}, "dtype": {"type": "DT_INT32"}}}, {"name": "PartitionedCall/model_21/tf.reshape_11/Reshape/shape", "op": "Const", "attr": {"value": {"tensor": {"dtype": "DT_INT32", "tensorShape": {"dim": [{"size": "4"}]}}}, "dtype": {"type": "DT_INT32"}}}, {"name": "PartitionedCall/model_21/tf.compat.v1.transpose_88/transpose/perm", "op": "Const", "attr": {"value": {"tensor": {"dtype": "DT_INT32", "tensorShape": {"dim": [{"size": "4"}]}}}, "dtype": {"type": "DT_INT32"}}}, {"name": "PartitionedCall/model_21/tf.compat.v1.transpose_89/transpose/perm", "op": "Const", "attr": {"value": {"tensor": {"dtype": "DT_INT32", "tensorShape": {"dim": [{"size": "4"}]}}}, "dtype": {"type": "DT_INT32"}}}, {"name": "unknown_164", "op": "Const", "attr": {"value": {"tensor": {"dtype": "DT_FLOAT", "tensorShape": {"dim": [{"size": "1"}, {"size": "1"}, {"size": "16"}, {"size": "1"}]}}}, "dtype": {"type": "DT_FLOAT"}}}, {"name": "PartitionedCall/model_21/tf.compat.v1.transpose_94/transpose/perm", "op": "Const", "attr": {"value": {"tensor": {"dtype": "DT_INT32", "tensorShape": {"dim": [{"size": "4"}]}}}, "dtype": {"type": "DT_INT32"}}}, {"name": "PartitionedCall/model_21/tf.reshape_14/Reshape/shape", "op": "Const", "attr": {"value": {"tensor": {"dtype": "DT_INT32", "tensorShape": {"dim": [{"size": "3"}]}}}, "dtype": {"type": "DT_INT32"}}}, {"name": "unknown_167", "op": "Const", "attr": {"value": {"tensor": {"dtype": "DT_INT64", "tensorShape": {"dim": [{"size": "3"}]}}}, "dtype": {"type": "DT_INT64"}}}, {"name": "unknown_168", "op": "Const", "attr": {"value": {"tensor": {"dtype": "DT_INT64", "tensorShape": {"dim": [{"size": "3"}]}}}, "dtype": {"type": "DT_INT64"}}}, {"name": "PartitionedCall/model_21/tf.strided_slice_18/ones_like", "op": "Const", "attr": {"value": {"tensor": {"dtype": "DT_INT64", "tensorShape": {"dim": [{"size": "3"}]}}}, "dtype": {"type": "DT_INT64"}}}, {"name": "PartitionedCall/model_21/tf.concat_22/concat/axis", "op": "Const", "attr": {"value": {"tensor": {"dtype": "DT_INT32", "tensorShape": {}}}, "dtype": {"type": "DT_INT32"}}}, {"name": "PartitionedCall/model_21/tf.math.multiply_252/Mul/y", "op": "Const", "attr": {"value": {"tensor": {"dtype": "DT_FLOAT", "tensorShape": {"dim": [{"size": "1"}, {"size": "1"}, {"size": "8400"}]}}}, "dtype": {"type": "DT_FLOAT"}}}, {"name": "unknown_134", "op": "Const", "attr": {"value": {"tensor": {"dtype": "DT_FLOAT", "tensorShape": {"dim": [{"size": "3"}, {"size": "3"}, {"size": "64"}, {"size": "64"}]}}}, "dtype": {"type": "DT_FLOAT"}}}, {"name": "unknown_139", "op": "Const", "attr": {"value": {"tensor": {"dtype": "DT_FLOAT", "tensorShape": {"dim": [{"size": "64"}]}}}, "dtype": {"type": "DT_FLOAT"}}}, {"name": "unknown_146", "op": "Const", "attr": {"value": {"tensor": {"dtype": "DT_FLOAT", "tensorShape": {"dim": [{"size": "3"}, {"size": "3"}, {"size": "64"}, {"size": "64"}]}}}, "dtype": {"type": "DT_FLOAT"}}}, {"name": "unknown_151", "op": "Const", "attr": {"value": {"tensor": {"dtype": "DT_FLOAT", "tensorShape": {"dim": [{"size": "64"}]}}}, "dtype": {"type": "DT_FLOAT"}}}, {"name": "unknown_157", "op": "Const", "attr": {"value": {"tensor": {"dtype": "DT_FLOAT", "tensorShape": {"dim": [{"size": "1"}, {"size": "1"}, {"size": "64"}, {"size": "64"}]}}}, "dtype": {"type": "DT_FLOAT"}}}, {"name": "unknown_162", "op": "Const", "attr": {"value": {"tensor": {"dtype": "DT_FLOAT", "tensorShape": {"dim": [{"size": "64"}]}}}, "dtype": {"type": "DT_FLOAT"}}}, {"name": "unknown_127", "op": "Const", "attr": {"value": {"tensor": {"dtype": "DT_FLOAT", "tensorShape": {"dim": [{"size": "3"}, {"size": "3"}, {"size": "64"}, {"size": "80"}]}}}, "dtype": {"type": "DT_FLOAT"}}}, {"name": "unknown_129", "op": "Const", "attr": {"value": {"tensor": {"dtype": "DT_FLOAT", "tensorShape": {"dim": [{"size": "80"}]}}}, "dtype": {"type": "DT_FLOAT"}}}, {"name": "unknown_140", "op": "Const", "attr": {"value": {"tensor": {"dtype": "DT_FLOAT", "tensorShape": {"dim": [{"size": "3"}, {"size": "3"}, {"size": "80"}, {"size": "80"}]}}}, "dtype": {"type": "DT_FLOAT"}}}, {"name": "unknown_141", "op": "Const", "attr": {"value": {"tensor": {"dtype": "DT_FLOAT", "tensorShape": {"dim": [{"size": "80"}]}}}, "dtype": {"type": "DT_FLOAT"}}}, {"name": "unknown_156", "op": "Const", "attr": {"value": {"tensor": {"dtype": "DT_FLOAT", "tensorShape": {"dim": [{"size": "1"}, {"size": "1"}, {"size": "80"}, {"size": "80"}]}}}, "dtype": {"type": "DT_FLOAT"}}}, {"name": "unknown_163", "op": "Const", "attr": {"value": {"tensor": {"dtype": "DT_FLOAT", "tensorShape": {"dim": [{"size": "80"}]}}}, "dtype": {"type": "DT_FLOAT"}}}, {"name": "PartitionedCall/model_21/tf.concat_12/concat/axis", "op": "Const", "attr": {"value": {"tensor": {"dtype": "DT_INT32", "tensorShape": {}}}, "dtype": {"type": "DT_INT32"}}}, {"name": "PartitionedCall/model_21/tf.compat.v1.transpose_55/transpose/perm", "op": "Const", "attr": {"value": {"tensor": {"dtype": "DT_INT32", "tensorShape": {"dim": [{"size": "4"}]}}}, "dtype": {"type": "DT_INT32"}}}, {"name": "PartitionedCall/model_21/tf.reshape_2/Reshape/shape", "op": "Const", "attr": {"value": {"tensor": {"dtype": "DT_INT32", "tensorShape": {"dim": [{"size": "3"}]}}}, "dtype": {"type": "DT_INT32"}}}, {"name": "unknown_133", "op": "Const", "attr": {"value": {"tensor": {"dtype": "DT_FLOAT", "tensorShape": {"dim": [{"size": "3"}, {"size": "3"}, {"size": "128"}, {"size": "64"}]}}}, "dtype": {"type": "DT_FLOAT"}}}, {"name": "unknown_138", "op": "Const", "attr": {"value": {"tensor": {"dtype": "DT_FLOAT", "tensorShape": {"dim": [{"size": "64"}]}}}, "dtype": {"type": "DT_FLOAT"}}}, {"name": "unknown_145", "op": "Const", "attr": {"value": {"tensor": {"dtype": "DT_FLOAT", "tensorShape": {"dim": [{"size": "3"}, {"size": "3"}, {"size": "64"}, {"size": "64"}]}}}, "dtype": {"type": "DT_FLOAT"}}}, {"name": "unknown_150", "op": "Const", "attr": {"value": {"tensor": {"dtype": "DT_FLOAT", "tensorShape": {"dim": [{"size": "64"}]}}}, "dtype": {"type": "DT_FLOAT"}}}, {"name": "unknown_155", "op": "Const", "attr": {"value": {"tensor": {"dtype": "DT_FLOAT", "tensorShape": {"dim": [{"size": "1"}, {"size": "1"}, {"size": "64"}, {"size": "64"}]}}}, "dtype": {"type": "DT_FLOAT"}}}, {"name": "unknown_160", "op": "Const", "attr": {"value": {"tensor": {"dtype": "DT_FLOAT", "tensorShape": {"dim": [{"size": "64"}]}}}, "dtype": {"type": "DT_FLOAT"}}}, {"name": "unknown_132", "op": "Const", "attr": {"value": {"tensor": {"dtype": "DT_FLOAT", "tensorShape": {"dim": [{"size": "3"}, {"size": "3"}, {"size": "128"}, {"size": "80"}]}}}, "dtype": {"type": "DT_FLOAT"}}}, {"name": "unknown_137", "op": "Const", "attr": {"value": {"tensor": {"dtype": "DT_FLOAT", "tensorShape": {"dim": [{"size": "80"}]}}}, "dtype": {"type": "DT_FLOAT"}}}, {"name": "unknown_144", "op": "Const", "attr": {"value": {"tensor": {"dtype": "DT_FLOAT", "tensorShape": {"dim": [{"size": "3"}, {"size": "3"}, {"size": "80"}, {"size": "80"}]}}}, "dtype": {"type": "DT_FLOAT"}}}, {"name": "unknown_149", "op": "Const", "attr": {"value": {"tensor": {"dtype": "DT_FLOAT", "tensorShape": {"dim": [{"size": "80"}]}}}, "dtype": {"type": "DT_FLOAT"}}}, {"name": "unknown_154", "op": "Const", "attr": {"value": {"tensor": {"dtype": "DT_FLOAT", "tensorShape": {"dim": [{"size": "1"}, {"size": "1"}, {"size": "80"}, {"size": "80"}]}}}, "dtype": {"type": "DT_FLOAT"}}}, {"name": "unknown_161", "op": "Const", "attr": {"value": {"tensor": {"dtype": "DT_FLOAT", "tensorShape": {"dim": [{"size": "80"}]}}}, "dtype": {"type": "DT_FLOAT"}}}, {"name": "PartitionedCall/model_21/tf.concat_15/concat/axis", "op": "Const", "attr": {"value": {"tensor": {"dtype": "DT_INT32", "tensorShape": {}}}, "dtype": {"type": "DT_INT32"}}}, {"name": "PartitionedCall/model_21/tf.compat.v1.transpose_69/transpose/perm", "op": "Const", "attr": {"value": {"tensor": {"dtype": "DT_INT32", "tensorShape": {"dim": [{"size": "4"}]}}}, "dtype": {"type": "DT_INT32"}}}, {"name": "PartitionedCall/model_21/tf.reshape_5/Reshape/shape", "op": "Const", "attr": {"value": {"tensor": {"dtype": "DT_INT32", "tensorShape": {"dim": [{"size": "3"}]}}}, "dtype": {"type": "DT_INT32"}}}, {"name": "unknown_131", "op": "Const", "attr": {"value": {"tensor": {"dtype": "DT_FLOAT", "tensorShape": {"dim": [{"size": "3"}, {"size": "3"}, {"size": "256"}, {"size": "64"}]}}}, "dtype": {"type": "DT_FLOAT"}}}, {"name": "unknown_136", "op": "Const", "attr": {"value": {"tensor": {"dtype": "DT_FLOAT", "tensorShape": {"dim": [{"size": "64"}]}}}, "dtype": {"type": "DT_FLOAT"}}}, {"name": "unknown_143", "op": "Const", "attr": {"value": {"tensor": {"dtype": "DT_FLOAT", "tensorShape": {"dim": [{"size": "3"}, {"size": "3"}, {"size": "64"}, {"size": "64"}]}}}, "dtype": {"type": "DT_FLOAT"}}}, {"name": "unknown_148", "op": "Const", "attr": {"value": {"tensor": {"dtype": "DT_FLOAT", "tensorShape": {"dim": [{"size": "64"}]}}}, "dtype": {"type": "DT_FLOAT"}}}, {"name": "unknown_153", "op": "Const", "attr": {"value": {"tensor": {"dtype": "DT_FLOAT", "tensorShape": {"dim": [{"size": "1"}, {"size": "1"}, {"size": "64"}, {"size": "64"}]}}}, "dtype": {"type": "DT_FLOAT"}}}, {"name": "unknown_158", "op": "Const", "attr": {"value": {"tensor": {"dtype": "DT_FLOAT", "tensorShape": {"dim": [{"size": "64"}]}}}, "dtype": {"type": "DT_FLOAT"}}}, {"name": "unknown_124", "op": "Const", "attr": {"value": {"tensor": {"dtype": "DT_INT64", "tensorShape": {"dim": [{"size": "4"}]}}}, "dtype": {"type": "DT_INT64"}}}, {"name": "unknown_125", "op": "Const", "attr": {"value": {"tensor": {"dtype": "DT_INT64", "tensorShape": {"dim": [{"size": "4"}]}}}, "dtype": {"type": "DT_INT64"}}}, {"name": "PartitionedCall/model_21/tf.strided_slice_14/ones_like", "op": "Const", "attr": {"value": {"tensor": {"dtype": "DT_INT64", "tensorShape": {"dim": [{"size": "4"}]}}}, "dtype": {"type": "DT_INT64"}}}, {"name": "unknown_109", "op": "Const", "attr": {"value": {"tensor": {"dtype": "DT_INT64", "tensorShape": {"dim": [{"size": "4"}]}}}, "dtype": {"type": "DT_INT64"}}}, {"name": "unknown_110", "op": "Const", "attr": {"value": {"tensor": {"dtype": "DT_INT64", "tensorShape": {"dim": [{"size": "4"}]}}}, "dtype": {"type": "DT_INT64"}}}, {"name": "PartitionedCall/model_21/tf.strided_slice_12/ones_like", "op": "Const", "attr": {"value": {"tensor": {"dtype": "DT_INT64", "tensorShape": {"dim": [{"size": "4"}]}}}, "dtype": {"type": "DT_INT64"}}}, {"name": "unknown_94", "op": "Const", "attr": {"value": {"tensor": {"dtype": "DT_INT64", "tensorShape": {"dim": [{"size": "4"}]}}}, "dtype": {"type": "DT_INT64"}}}, {"name": "unknown_95", "op": "Const", "attr": {"value": {"tensor": {"dtype": "DT_INT64", "tensorShape": {"dim": [{"size": "4"}]}}}, "dtype": {"type": "DT_INT64"}}}, {"name": "PartitionedCall/model_21/tf.strided_slice_10/ones_like", "op": "Const", "attr": {"value": {"tensor": {"dtype": "DT_INT64", "tensorShape": {"dim": [{"size": "4"}]}}}, "dtype": {"type": "DT_INT64"}}}, {"name": "PartitionedCall/model_21/tf.image.resize_1/resize/size", "op": "Const", "attr": {"value": {"tensor": {"dtype": "DT_INT32", "tensorShape": {"dim": [{"size": "2"}]}}}, "dtype": {"type": "DT_INT32"}}}, {"name": "PartitionedCall/model_21/tf.concat_7/concat/axis", "op": "Const", "attr": {"value": {"tensor": {"dtype": "DT_INT32", "tensorShape": {}}}, "dtype": {"type": "DT_INT32"}}}, {"name": "unknown_86", "op": "Const", "attr": {"value": {"tensor": {"dtype": "DT_FLOAT", "tensorShape": {"dim": [{"size": "1"}, {"size": "1"}, {"size": "192"}, {"size": "64"}]}}}, "dtype": {"type": "DT_FLOAT"}}}, {"name": "unknown_87", "op": "Const", "attr": {"value": {"tensor": {"dtype": "DT_FLOAT", "tensorShape": {"dim": [{"size": "64"}]}}}, "dtype": {"type": "DT_FLOAT"}}}, {"name": "unknown_88", "op": "Const", "attr": {"value": {"tensor": {"dtype": "DT_INT64", "tensorShape": {"dim": [{"size": "4"}]}}}, "dtype": {"type": "DT_INT64"}}}, {"name": "unknown_89", "op": "Const", "attr": {"value": {"tensor": {"dtype": "DT_INT64", "tensorShape": {"dim": [{"size": "4"}]}}}, "dtype": {"type": "DT_INT64"}}}, {"name": "PartitionedCall/model_21/tf.strided_slice_11/ones_like", "op": "Const", "attr": {"value": {"tensor": {"dtype": "DT_INT64", "tensorShape": {"dim": [{"size": "4"}]}}}, "dtype": {"type": "DT_INT64"}}}, {"name": "unknown_90", "op": "Const", "attr": {"value": {"tensor": {"dtype": "DT_FLOAT", "tensorShape": {"dim": [{"size": "3"}, {"size": "3"}, {"size": "32"}, {"size": "32"}]}}}, "dtype": {"type": "DT_FLOAT"}}}, {"name": "unknown_91", "op": "Const", "attr": {"value": {"tensor": {"dtype": "DT_FLOAT", "tensorShape": {"dim": [{"size": "32"}]}}}, "dtype": {"type": "DT_FLOAT"}}}, {"name": "unknown_92", "op": "Const", "attr": {"value": {"tensor": {"dtype": "DT_FLOAT", "tensorShape": {"dim": [{"size": "3"}, {"size": "3"}, {"size": "32"}, {"size": "32"}]}}}, "dtype": {"type": "DT_FLOAT"}}}, {"name": "unknown_93", "op": "Const", "attr": {"value": {"tensor": {"dtype": "DT_FLOAT", "tensorShape": {"dim": [{"size": "32"}]}}}, "dtype": {"type": "DT_FLOAT"}}}, {"name": "PartitionedCall/model_21/tf.concat_8/concat/axis", "op": "Const", "attr": {"value": {"tensor": {"dtype": "DT_INT32", "tensorShape": {}}}, "dtype": {"type": "DT_INT32"}}}, {"name": "unknown_96", "op": "Const", "attr": {"value": {"tensor": {"dtype": "DT_FLOAT", "tensorShape": {"dim": [{"size": "1"}, {"size": "1"}, {"size": "96"}, {"size": "64"}]}}}, "dtype": {"type": "DT_FLOAT"}}}, {"name": "unknown_97", "op": "Const", "attr": {"value": {"tensor": {"dtype": "DT_FLOAT", "tensorShape": {"dim": [{"size": "64"}]}}}, "dtype": {"type": "DT_FLOAT"}}}, {"name": "unknown_98", "op": "Const", "attr": {"value": {"tensor": {"dtype": "DT_INT32", "tensorShape": {"dim": [{"size": "4"}, {"size": "2"}]}}}, "dtype": {"type": "DT_INT32"}}}, {"name": "unknown_99", "op": "Const", "attr": {"value": {"tensor": {"dtype": "DT_FLOAT", "tensorShape": {"dim": [{"size": "3"}, {"size": "3"}, {"size": "64"}, {"size": "64"}]}}}, "dtype": {"type": "DT_FLOAT"}}}, {"name": "unknown_100", "op": "Const", "attr": {"value": {"tensor": {"dtype": "DT_FLOAT", "tensorShape": {"dim": [{"size": "64"}]}}}, "dtype": {"type": "DT_FLOAT"}}}, {"name": "unknown_82", "op": "Const", "attr": {"value": {"tensor": {"dtype": "DT_INT64", "tensorShape": {"dim": [{"size": "4"}]}}}, "dtype": {"type": "DT_INT64"}}}, {"name": "unknown_83", "op": "Const", "attr": {"value": {"tensor": {"dtype": "DT_INT64", "tensorShape": {"dim": [{"size": "4"}]}}}, "dtype": {"type": "DT_INT64"}}}, {"name": "PartitionedCall/model_21/tf.strided_slice_8/ones_like", "op": "Const", "attr": {"value": {"tensor": {"dtype": "DT_INT64", "tensorShape": {"dim": [{"size": "4"}]}}}, "dtype": {"type": "DT_INT64"}}}, {"name": "PartitionedCall/model_21/tf.image.resize/resize/size", "op": "Const", "attr": {"value": {"tensor": {"dtype": "DT_INT32", "tensorShape": {"dim": [{"size": "2"}]}}}, "dtype": {"type": "DT_INT32"}}}, {"name": "PartitionedCall/model_21/tf.concat_5/concat/axis", "op": "Const", "attr": {"value": {"tensor": {"dtype": "DT_INT32", "tensorShape": {}}}, "dtype": {"type": "DT_INT32"}}}, {"name": "unknown_74", "op": "Const", "attr": {"value": {"tensor": {"dtype": "DT_FLOAT", "tensorShape": {"dim": [{"size": "1"}, {"size": "1"}, {"size": "384"}, {"size": "128"}]}}}, "dtype": {"type": "DT_FLOAT"}}}, {"name": "unknown_75", "op": "Const", "attr": {"value": {"tensor": {"dtype": "DT_FLOAT", "tensorShape": {"dim": [{"size": "128"}]}}}, "dtype": {"type": "DT_FLOAT"}}}, {"name": "unknown_76", "op": "Const", "attr": {"value": {"tensor": {"dtype": "DT_INT64", "tensorShape": {"dim": [{"size": "4"}]}}}, "dtype": {"type": "DT_INT64"}}}, {"name": "unknown_77", "op": "Const", "attr": {"value": {"tensor": {"dtype": "DT_INT64", "tensorShape": {"dim": [{"size": "4"}]}}}, "dtype": {"type": "DT_INT64"}}}, {"name": "PartitionedCall/model_21/tf.strided_slice_9/ones_like", "op": "Const", "attr": {"value": {"tensor": {"dtype": "DT_INT64", "tensorShape": {"dim": [{"size": "4"}]}}}, "dtype": {"type": "DT_INT64"}}}, {"name": "unknown_78", "op": "Const", "attr": {"value": {"tensor": {"dtype": "DT_FLOAT", "tensorShape": {"dim": [{"size": "3"}, {"size": "3"}, {"size": "64"}, {"size": "64"}]}}}, "dtype": {"type": "DT_FLOAT"}}}, {"name": "unknown_79", "op": "Const", "attr": {"value": {"tensor": {"dtype": "DT_FLOAT", "tensorShape": {"dim": [{"size": "64"}]}}}, "dtype": {"type": "DT_FLOAT"}}}, {"name": "unknown_80", "op": "Const", "attr": {"value": {"tensor": {"dtype": "DT_FLOAT", "tensorShape": {"dim": [{"size": "3"}, {"size": "3"}, {"size": "64"}, {"size": "64"}]}}}, "dtype": {"type": "DT_FLOAT"}}}, {"name": "unknown_81", "op": "Const", "attr": {"value": {"tensor": {"dtype": "DT_FLOAT", "tensorShape": {"dim": [{"size": "64"}]}}}, "dtype": {"type": "DT_FLOAT"}}}, {"name": "PartitionedCall/model_21/tf.concat_6/concat/axis", "op": "Const", "attr": {"value": {"tensor": {"dtype": "DT_INT32", "tensorShape": {}}}, "dtype": {"type": "DT_INT32"}}}, {"name": "unknown_84", "op": "Const", "attr": {"value": {"tensor": {"dtype": "DT_FLOAT", "tensorShape": {"dim": [{"size": "1"}, {"size": "1"}, {"size": "192"}, {"size": "128"}]}}}, "dtype": {"type": "DT_FLOAT"}}}, {"name": "unknown_85", "op": "Const", "attr": {"value": {"tensor": {"dtype": "DT_FLOAT", "tensorShape": {"dim": [{"size": "128"}]}}}, "dtype": {"type": "DT_FLOAT"}}}, {"name": "PartitionedCall/model_21/tf.concat_9/concat/axis", "op": "Const", "attr": {"value": {"tensor": {"dtype": "DT_INT32", "tensorShape": {}}}, "dtype": {"type": "DT_INT32"}}}, {"name": "unknown_101", "op": "Const", "attr": {"value": {"tensor": {"dtype": "DT_FLOAT", "tensorShape": {"dim": [{"size": "1"}, {"size": "1"}, {"size": "192"}, {"size": "128"}]}}}, "dtype": {"type": "DT_FLOAT"}}}, {"name": "unknown_102", "op": "Const", "attr": {"value": {"tensor": {"dtype": "DT_FLOAT", "tensorShape": {"dim": [{"size": "128"}]}}}, "dtype": {"type": "DT_FLOAT"}}}, {"name": "unknown_103", "op": "Const", "attr": {"value": {"tensor": {"dtype": "DT_INT64", "tensorShape": {"dim": [{"size": "4"}]}}}, "dtype": {"type": "DT_INT64"}}}, {"name": "unknown_104", "op": "Const", "attr": {"value": {"tensor": {"dtype": "DT_INT64", "tensorShape": {"dim": [{"size": "4"}]}}}, "dtype": {"type": "DT_INT64"}}}, {"name": "PartitionedCall/model_21/tf.strided_slice_13/ones_like", "op": "Const", "attr": {"value": {"tensor": {"dtype": "DT_INT64", "tensorShape": {"dim": [{"size": "4"}]}}}, "dtype": {"type": "DT_INT64"}}}, {"name": "unknown_105", "op": "Const", "attr": {"value": {"tensor": {"dtype": "DT_FLOAT", "tensorShape": {"dim": [{"size": "3"}, {"size": "3"}, {"size": "64"}, {"size": "64"}]}}}, "dtype": {"type": "DT_FLOAT"}}}, {"name": "unknown_106", "op": "Const", "attr": {"value": {"tensor": {"dtype": "DT_FLOAT", "tensorShape": {"dim": [{"size": "64"}]}}}, "dtype": {"type": "DT_FLOAT"}}}, {"name": "unknown_107", "op": "Const", "attr": {"value": {"tensor": {"dtype": "DT_FLOAT", "tensorShape": {"dim": [{"size": "3"}, {"size": "3"}, {"size": "64"}, {"size": "64"}]}}}, "dtype": {"type": "DT_FLOAT"}}}, {"name": "unknown_108", "op": "Const", "attr": {"value": {"tensor": {"dtype": "DT_FLOAT", "tensorShape": {"dim": [{"size": "64"}]}}}, "dtype": {"type": "DT_FLOAT"}}}, {"name": "PartitionedCall/model_21/tf.concat_13/concat/axis", "op": "Const", "attr": {"value": {"tensor": {"dtype": "DT_INT32", "tensorShape": {}}}, "dtype": {"type": "DT_INT32"}}}, {"name": "unknown_111", "op": "Const", "attr": {"value": {"tensor": {"dtype": "DT_FLOAT", "tensorShape": {"dim": [{"size": "1"}, {"size": "1"}, {"size": "192"}, {"size": "128"}]}}}, "dtype": {"type": "DT_FLOAT"}}}, {"name": "unknown_112", "op": "Const", "attr": {"value": {"tensor": {"dtype": "DT_FLOAT", "tensorShape": {"dim": [{"size": "128"}]}}}, "dtype": {"type": "DT_FLOAT"}}}, {"name": "unknown_113", "op": "Const", "attr": {"value": {"tensor": {"dtype": "DT_INT32", "tensorShape": {"dim": [{"size": "4"}, {"size": "2"}]}}}, "dtype": {"type": "DT_INT32"}}}, {"name": "unknown_114", "op": "Const", "attr": {"value": {"tensor": {"dtype": "DT_FLOAT", "tensorShape": {"dim": [{"size": "3"}, {"size": "3"}, {"size": "128"}, {"size": "128"}]}}}, "dtype": {"type": "DT_FLOAT"}}}, {"name": "unknown_115", "op": "Const", "attr": {"value": {"tensor": {"dtype": "DT_FLOAT", "tensorShape": {"dim": [{"size": "128"}]}}}, "dtype": {"type": "DT_FLOAT"}}}, {"name": "unknown_66", "op": "Const", "attr": {"value": {"tensor": {"dtype": "DT_INT64", "tensorShape": {"dim": [{"size": "4"}]}}}, "dtype": {"type": "DT_INT64"}}}, {"name": "unknown_67", "op": "Const", "attr": {"value": {"tensor": {"dtype": "DT_INT64", "tensorShape": {"dim": [{"size": "4"}]}}}, "dtype": {"type": "DT_INT64"}}}, {"name": "PartitionedCall/model_21/tf.strided_slice_6/ones_like", "op": "Const", "attr": {"value": {"tensor": {"dtype": "DT_INT64", "tensorShape": {"dim": [{"size": "4"}]}}}, "dtype": {"type": "DT_INT64"}}}, {"name": "unknown_51", "op": "Const", "attr": {"value": {"tensor": {"dtype": "DT_INT64", "tensorShape": {"dim": [{"size": "4"}]}}}, "dtype": {"type": "DT_INT64"}}}, {"name": "unknown_52", "op": "Const", "attr": {"value": {"tensor": {"dtype": "DT_INT64", "tensorShape": {"dim": [{"size": "4"}]}}}, "dtype": {"type": "DT_INT64"}}}, {"name": "PartitionedCall/model_21/tf.strided_slice_4/ones_like", "op": "Const", "attr": {"value": {"tensor": {"dtype": "DT_INT64", "tensorShape": {"dim": [{"size": "4"}]}}}, "dtype": {"type": "DT_INT64"}}}, {"name": "unknown_32", "op": "Const", "attr": {"value": {"tensor": {"dtype": "DT_INT64", "tensorShape": {"dim": [{"size": "4"}]}}}, "dtype": {"type": "DT_INT64"}}}, {"name": "unknown_33", "op": "Const", "attr": {"value": {"tensor": {"dtype": "DT_INT64", "tensorShape": {"dim": [{"size": "4"}]}}}, "dtype": {"type": "DT_INT64"}}}, {"name": "PartitionedCall/model_21/tf.strided_slice_2/ones_like", "op": "Const", "attr": {"value": {"tensor": {"dtype": "DT_INT64", "tensorShape": {"dim": [{"size": "4"}]}}}, "dtype": {"type": "DT_INT64"}}}, {"name": "unknown_13", "op": "Const", "attr": {"value": {"tensor": {"dtype": "DT_INT64", "tensorShape": {"dim": [{"size": "4"}]}}}, "dtype": {"type": "DT_INT64"}}}, {"name": "unknown_14", "op": "Const", "attr": {"value": {"tensor": {"dtype": "DT_INT64", "tensorShape": {"dim": [{"size": "4"}]}}}, "dtype": {"type": "DT_INT64"}}}, {"name": "PartitionedCall/model_21/tf.strided_slice/ones_like", "op": "Const", "attr": {"value": {"tensor": {"dtype": "DT_INT64", "tensorShape": {"dim": [{"size": "4"}]}}}, "dtype": {"type": "DT_INT64"}}}, {"name": "unknown", "op": "Const", "attr": {"value": {"tensor": {"dtype": "DT_INT32", "tensorShape": {"dim": [{"size": "4"}, {"size": "2"}]}}}, "dtype": {"type": "DT_INT32"}}}, {"name": "unknown_0", "op": "Const", "attr": {"value": {"tensor": {"dtype": "DT_FLOAT", "tensorShape": {"dim": [{"size": "3"}, {"size": "3"}, {"size": "3"}, {"size": "16"}]}}}, "dtype": {"type": "DT_FLOAT"}}}, {"name": "unknown_1", "op": "Const", "attr": {"value": {"tensor": {"dtype": "DT_FLOAT", "tensorShape": {"dim": [{"size": "16"}]}}}, "dtype": {"type": "DT_FLOAT"}}}, {"name": "unknown_2", "op": "Const", "attr": {"value": {"tensor": {"dtype": "DT_INT32", "tensorShape": {"dim": [{"size": "4"}, {"size": "2"}]}}}, "dtype": {"type": "DT_INT32"}}}, {"name": "unknown_3", "op": "Const", "attr": {"value": {"tensor": {"dtype": "DT_FLOAT", "tensorShape": {"dim": [{"size": "3"}, {"size": "3"}, {"size": "16"}, {"size": "32"}]}}}, "dtype": {"type": "DT_FLOAT"}}}, {"name": "unknown_4", "op": "Const", "attr": {"value": {"tensor": {"dtype": "DT_FLOAT", "tensorShape": {"dim": [{"size": "32"}]}}}, "dtype": {"type": "DT_FLOAT"}}}, {"name": "unknown_5", "op": "Const", "attr": {"value": {"tensor": {"dtype": "DT_FLOAT", "tensorShape": {"dim": [{"size": "1"}, {"size": "1"}, {"size": "32"}, {"size": "32"}]}}}, "dtype": {"type": "DT_FLOAT"}}}, {"name": "unknown_6", "op": "Const", "attr": {"value": {"tensor": {"dtype": "DT_FLOAT", "tensorShape": {"dim": [{"size": "32"}]}}}, "dtype": {"type": "DT_FLOAT"}}}, {"name": "unknown_7", "op": "Const", "attr": {"value": {"tensor": {"dtype": "DT_INT64", "tensorShape": {"dim": [{"size": "4"}]}}}, "dtype": {"type": "DT_INT64"}}}, {"name": "unknown_8", "op": "Const", "attr": {"value": {"tensor": {"dtype": "DT_INT64", "tensorShape": {"dim": [{"size": "4"}]}}}, "dtype": {"type": "DT_INT64"}}}, {"name": "PartitionedCall/model_21/tf.strided_slice_1/ones_like", "op": "Const", "attr": {"value": {"tensor": {"dtype": "DT_INT64", "tensorShape": {"dim": [{"size": "4"}]}}}, "dtype": {"type": "DT_INT64"}}}, {"name": "unknown_9", "op": "Const", "attr": {"value": {"tensor": {"dtype": "DT_FLOAT", "tensorShape": {"dim": [{"size": "3"}, {"size": "3"}, {"size": "16"}, {"size": "16"}]}}}, "dtype": {"type": "DT_FLOAT"}}}, {"name": "unknown_10", "op": "Const", "attr": {"value": {"tensor": {"dtype": "DT_FLOAT", "tensorShape": {"dim": [{"size": "16"}]}}}, "dtype": {"type": "DT_FLOAT"}}}, {"name": "unknown_11", "op": "Const", "attr": {"value": {"tensor": {"dtype": "DT_FLOAT", "tensorShape": {"dim": [{"size": "3"}, {"size": "3"}, {"size": "16"}, {"size": "16"}]}}}, "dtype": {"type": "DT_FLOAT"}}}, {"name": "unknown_12", "op": "Const", "attr": {"value": {"tensor": {"dtype": "DT_FLOAT", "tensorShape": {"dim": [{"size": "16"}]}}}, "dtype": {"type": "DT_FLOAT"}}}, {"name": "PartitionedCall/model_21/tf.concat/concat/axis", "op": "Const", "attr": {"value": {"tensor": {"dtype": "DT_INT32", "tensorShape": {}}}, "dtype": {"type": "DT_INT32"}}}, {"name": "unknown_15", "op": "Const", "attr": {"value": {"tensor": {"dtype": "DT_FLOAT", "tensorShape": {"dim": [{"size": "1"}, {"size": "1"}, {"size": "48"}, {"size": "32"}]}}}, "dtype": {"type": "DT_FLOAT"}}}, {"name": "unknown_16", "op": "Const", "attr": {"value": {"tensor": {"dtype": "DT_FLOAT", "tensorShape": {"dim": [{"size": "32"}]}}}, "dtype": {"type": "DT_FLOAT"}}}, {"name": "unknown_17", "op": "Const", "attr": {"value": {"tensor": {"dtype": "DT_INT32", "tensorShape": {"dim": [{"size": "4"}, {"size": "2"}]}}}, "dtype": {"type": "DT_INT32"}}}, {"name": "unknown_18", "op": "Const", "attr": {"value": {"tensor": {"dtype": "DT_FLOAT", "tensorShape": {"dim": [{"size": "3"}, {"size": "3"}, {"size": "32"}, {"size": "64"}]}}}, "dtype": {"type": "DT_FLOAT"}}}, {"name": "unknown_19", "op": "Const", "attr": {"value": {"tensor": {"dtype": "DT_FLOAT", "tensorShape": {"dim": [{"size": "64"}]}}}, "dtype": {"type": "DT_FLOAT"}}}, {"name": "unknown_20", "op": "Const", "attr": {"value": {"tensor": {"dtype": "DT_FLOAT", "tensorShape": {"dim": [{"size": "1"}, {"size": "1"}, {"size": "64"}, {"size": "64"}]}}}, "dtype": {"type": "DT_FLOAT"}}}, {"name": "unknown_21", "op": "Const", "attr": {"value": {"tensor": {"dtype": "DT_FLOAT", "tensorShape": {"dim": [{"size": "64"}]}}}, "dtype": {"type": "DT_FLOAT"}}}, {"name": "unknown_22", "op": "Const", "attr": {"value": {"tensor": {"dtype": "DT_INT64", "tensorShape": {"dim": [{"size": "4"}]}}}, "dtype": {"type": "DT_INT64"}}}, {"name": "unknown_23", "op": "Const", "attr": {"value": {"tensor": {"dtype": "DT_INT64", "tensorShape": {"dim": [{"size": "4"}]}}}, "dtype": {"type": "DT_INT64"}}}, {"name": "PartitionedCall/model_21/tf.strided_slice_3/ones_like", "op": "Const", "attr": {"value": {"tensor": {"dtype": "DT_INT64", "tensorShape": {"dim": [{"size": "4"}]}}}, "dtype": {"type": "DT_INT64"}}}, {"name": "unknown_24", "op": "Const", "attr": {"value": {"tensor": {"dtype": "DT_FLOAT", "tensorShape": {"dim": [{"size": "3"}, {"size": "3"}, {"size": "32"}, {"size": "32"}]}}}, "dtype": {"type": "DT_FLOAT"}}}, {"name": "unknown_25", "op": "Const", "attr": {"value": {"tensor": {"dtype": "DT_FLOAT", "tensorShape": {"dim": [{"size": "32"}]}}}, "dtype": {"type": "DT_FLOAT"}}}, {"name": "unknown_26", "op": "Const", "attr": {"value": {"tensor": {"dtype": "DT_FLOAT", "tensorShape": {"dim": [{"size": "3"}, {"size": "3"}, {"size": "32"}, {"size": "32"}]}}}, "dtype": {"type": "DT_FLOAT"}}}, {"name": "unknown_27", "op": "Const", "attr": {"value": {"tensor": {"dtype": "DT_FLOAT", "tensorShape": {"dim": [{"size": "32"}]}}}, "dtype": {"type": "DT_FLOAT"}}}, {"name": "unknown_28", "op": "Const", "attr": {"value": {"tensor": {"dtype": "DT_FLOAT", "tensorShape": {"dim": [{"size": "3"}, {"size": "3"}, {"size": "32"}, {"size": "32"}]}}}, "dtype": {"type": "DT_FLOAT"}}}, {"name": "unknown_29", "op": "Const", "attr": {"value": {"tensor": {"dtype": "DT_FLOAT", "tensorShape": {"dim": [{"size": "32"}]}}}, "dtype": {"type": "DT_FLOAT"}}}, {"name": "unknown_30", "op": "Const", "attr": {"value": {"tensor": {"dtype": "DT_FLOAT", "tensorShape": {"dim": [{"size": "3"}, {"size": "3"}, {"size": "32"}, {"size": "32"}]}}}, "dtype": {"type": "DT_FLOAT"}}}, {"name": "unknown_31", "op": "Const", "attr": {"value": {"tensor": {"dtype": "DT_FLOAT", "tensorShape": {"dim": [{"size": "32"}]}}}, "dtype": {"type": "DT_FLOAT"}}}, {"name": "PartitionedCall/model_21/tf.concat_1/concat/axis", "op": "Const", "attr": {"value": {"tensor": {"dtype": "DT_INT32", "tensorShape": {}}}, "dtype": {"type": "DT_INT32"}}}, {"name": "unknown_34", "op": "Const", "attr": {"value": {"tensor": {"dtype": "DT_FLOAT", "tensorShape": {"dim": [{"size": "1"}, {"size": "1"}, {"size": "128"}, {"size": "64"}]}}}, "dtype": {"type": "DT_FLOAT"}}}, {"name": "unknown_35", "op": "Const", "attr": {"value": {"tensor": {"dtype": "DT_FLOAT", "tensorShape": {"dim": [{"size": "64"}]}}}, "dtype": {"type": "DT_FLOAT"}}}, {"name": "unknown_36", "op": "Const", "attr": {"value": {"tensor": {"dtype": "DT_INT32", "tensorShape": {"dim": [{"size": "4"}, {"size": "2"}]}}}, "dtype": {"type": "DT_INT32"}}}, {"name": "unknown_37", "op": "Const", "attr": {"value": {"tensor": {"dtype": "DT_FLOAT", "tensorShape": {"dim": [{"size": "3"}, {"size": "3"}, {"size": "64"}, {"size": "128"}]}}}, "dtype": {"type": "DT_FLOAT"}}}, {"name": "unknown_38", "op": "Const", "attr": {"value": {"tensor": {"dtype": "DT_FLOAT", "tensorShape": {"dim": [{"size": "128"}]}}}, "dtype": {"type": "DT_FLOAT"}}}, {"name": "unknown_39", "op": "Const", "attr": {"value": {"tensor": {"dtype": "DT_FLOAT", "tensorShape": {"dim": [{"size": "1"}, {"size": "1"}, {"size": "128"}, {"size": "128"}]}}}, "dtype": {"type": "DT_FLOAT"}}}, {"name": "unknown_40", "op": "Const", "attr": {"value": {"tensor": {"dtype": "DT_FLOAT", "tensorShape": {"dim": [{"size": "128"}]}}}, "dtype": {"type": "DT_FLOAT"}}}, {"name": "unknown_41", "op": "Const", "attr": {"value": {"tensor": {"dtype": "DT_INT64", "tensorShape": {"dim": [{"size": "4"}]}}}, "dtype": {"type": "DT_INT64"}}}, {"name": "unknown_42", "op": "Const", "attr": {"value": {"tensor": {"dtype": "DT_INT64", "tensorShape": {"dim": [{"size": "4"}]}}}, "dtype": {"type": "DT_INT64"}}}, {"name": "PartitionedCall/model_21/tf.strided_slice_5/ones_like", "op": "Const", "attr": {"value": {"tensor": {"dtype": "DT_INT64", "tensorShape": {"dim": [{"size": "4"}]}}}, "dtype": {"type": "DT_INT64"}}}, {"name": "unknown_43", "op": "Const", "attr": {"value": {"tensor": {"dtype": "DT_FLOAT", "tensorShape": {"dim": [{"size": "3"}, {"size": "3"}, {"size": "64"}, {"size": "64"}]}}}, "dtype": {"type": "DT_FLOAT"}}}, {"name": "unknown_44", "op": "Const", "attr": {"value": {"tensor": {"dtype": "DT_FLOAT", "tensorShape": {"dim": [{"size": "64"}]}}}, "dtype": {"type": "DT_FLOAT"}}}, {"name": "unknown_45", "op": "Const", "attr": {"value": {"tensor": {"dtype": "DT_FLOAT", "tensorShape": {"dim": [{"size": "3"}, {"size": "3"}, {"size": "64"}, {"size": "64"}]}}}, "dtype": {"type": "DT_FLOAT"}}}, {"name": "unknown_46", "op": "Const", "attr": {"value": {"tensor": {"dtype": "DT_FLOAT", "tensorShape": {"dim": [{"size": "64"}]}}}, "dtype": {"type": "DT_FLOAT"}}}, {"name": "unknown_47", "op": "Const", "attr": {"value": {"tensor": {"dtype": "DT_FLOAT", "tensorShape": {"dim": [{"size": "3"}, {"size": "3"}, {"size": "64"}, {"size": "64"}]}}}, "dtype": {"type": "DT_FLOAT"}}}, {"name": "unknown_48", "op": "Const", "attr": {"value": {"tensor": {"dtype": "DT_FLOAT", "tensorShape": {"dim": [{"size": "64"}]}}}, "dtype": {"type": "DT_FLOAT"}}}, {"name": "unknown_49", "op": "Const", "attr": {"value": {"tensor": {"dtype": "DT_FLOAT", "tensorShape": {"dim": [{"size": "3"}, {"size": "3"}, {"size": "64"}, {"size": "64"}]}}}, "dtype": {"type": "DT_FLOAT"}}}, {"name": "unknown_50", "op": "Const", "attr": {"value": {"tensor": {"dtype": "DT_FLOAT", "tensorShape": {"dim": [{"size": "64"}]}}}, "dtype": {"type": "DT_FLOAT"}}}, {"name": "PartitionedCall/model_21/tf.concat_2/concat/axis", "op": "Const", "attr": {"value": {"tensor": {"dtype": "DT_INT32", "tensorShape": {}}}, "dtype": {"type": "DT_INT32"}}}, {"name": "unknown_53", "op": "Const", "attr": {"value": {"tensor": {"dtype": "DT_FLOAT", "tensorShape": {"dim": [{"size": "1"}, {"size": "1"}, {"size": "256"}, {"size": "128"}]}}}, "dtype": {"type": "DT_FLOAT"}}}, {"name": "unknown_54", "op": "Const", "attr": {"value": {"tensor": {"dtype": "DT_FLOAT", "tensorShape": {"dim": [{"size": "128"}]}}}, "dtype": {"type": "DT_FLOAT"}}}, {"name": "unknown_55", "op": "Const", "attr": {"value": {"tensor": {"dtype": "DT_INT32", "tensorShape": {"dim": [{"size": "4"}, {"size": "2"}]}}}, "dtype": {"type": "DT_INT32"}}}, {"name": "unknown_56", "op": "Const", "attr": {"value": {"tensor": {"dtype": "DT_FLOAT", "tensorShape": {"dim": [{"size": "3"}, {"size": "3"}, {"size": "128"}, {"size": "256"}]}}}, "dtype": {"type": "DT_FLOAT"}}}, {"name": "unknown_57", "op": "Const", "attr": {"value": {"tensor": {"dtype": "DT_FLOAT", "tensorShape": {"dim": [{"size": "256"}]}}}, "dtype": {"type": "DT_FLOAT"}}}, {"name": "unknown_58", "op": "Const", "attr": {"value": {"tensor": {"dtype": "DT_FLOAT", "tensorShape": {"dim": [{"size": "1"}, {"size": "1"}, {"size": "256"}, {"size": "256"}]}}}, "dtype": {"type": "DT_FLOAT"}}}, {"name": "unknown_59", "op": "Const", "attr": {"value": {"tensor": {"dtype": "DT_FLOAT", "tensorShape": {"dim": [{"size": "256"}]}}}, "dtype": {"type": "DT_FLOAT"}}}, {"name": "unknown_60", "op": "Const", "attr": {"value": {"tensor": {"dtype": "DT_INT64", "tensorShape": {"dim": [{"size": "4"}]}}}, "dtype": {"type": "DT_INT64"}}}, {"name": "unknown_61", "op": "Const", "attr": {"value": {"tensor": {"dtype": "DT_INT64", "tensorShape": {"dim": [{"size": "4"}]}}}, "dtype": {"type": "DT_INT64"}}}, {"name": "PartitionedCall/model_21/tf.strided_slice_7/ones_like", "op": "Const", "attr": {"value": {"tensor": {"dtype": "DT_INT64", "tensorShape": {"dim": [{"size": "4"}]}}}, "dtype": {"type": "DT_INT64"}}}, {"name": "unknown_62", "op": "Const", "attr": {"value": {"tensor": {"dtype": "DT_FLOAT", "tensorShape": {"dim": [{"size": "3"}, {"size": "3"}, {"size": "128"}, {"size": "128"}]}}}, "dtype": {"type": "DT_FLOAT"}}}, {"name": "unknown_63", "op": "Const", "attr": {"value": {"tensor": {"dtype": "DT_FLOAT", "tensorShape": {"dim": [{"size": "128"}]}}}, "dtype": {"type": "DT_FLOAT"}}}, {"name": "unknown_64", "op": "Const", "attr": {"value": {"tensor": {"dtype": "DT_FLOAT", "tensorShape": {"dim": [{"size": "3"}, {"size": "3"}, {"size": "128"}, {"size": "128"}]}}}, "dtype": {"type": "DT_FLOAT"}}}, {"name": "unknown_65", "op": "Const", "attr": {"value": {"tensor": {"dtype": "DT_FLOAT", "tensorShape": {"dim": [{"size": "128"}]}}}, "dtype": {"type": "DT_FLOAT"}}}, {"name": "PartitionedCall/model_21/tf.concat_3/concat/axis", "op": "Const", "attr": {"value": {"tensor": {"dtype": "DT_INT32", "tensorShape": {}}}, "dtype": {"type": "DT_INT32"}}}, {"name": "unknown_68", "op": "Const", "attr": {"value": {"tensor": {"dtype": "DT_FLOAT", "tensorShape": {"dim": [{"size": "1"}, {"size": "1"}, {"size": "384"}, {"size": "256"}]}}}, "dtype": {"type": "DT_FLOAT"}}}, {"name": "unknown_69", "op": "Const", "attr": {"value": {"tensor": {"dtype": "DT_FLOAT", "tensorShape": {"dim": [{"size": "256"}]}}}, "dtype": {"type": "DT_FLOAT"}}}, {"name": "unknown_70", "op": "Const", "attr": {"value": {"tensor": {"dtype": "DT_FLOAT", "tensorShape": {"dim": [{"size": "1"}, {"size": "1"}, {"size": "256"}, {"size": "128"}]}}}, "dtype": {"type": "DT_FLOAT"}}}, {"name": "unknown_71", "op": "Const", "attr": {"value": {"tensor": {"dtype": "DT_FLOAT", "tensorShape": {"dim": [{"size": "128"}]}}}, "dtype": {"type": "DT_FLOAT"}}}, {"name": "PartitionedCall/model_21/tf.concat_4/concat/axis", "op": "Const", "attr": {"value": {"tensor": {"dtype": "DT_INT32", "tensorShape": {}}}, "dtype": {"type": "DT_INT32"}}}, {"name": "unknown_72", "op": "Const", "attr": {"value": {"tensor": {"dtype": "DT_FLOAT", "tensorShape": {"dim": [{"size": "1"}, {"size": "1"}, {"size": "512"}, {"size": "256"}]}}}, "dtype": {"type": "DT_FLOAT"}}}, {"name": "unknown_73", "op": "Const", "attr": {"value": {"tensor": {"dtype": "DT_FLOAT", "tensorShape": {"dim": [{"size": "256"}]}}}, "dtype": {"type": "DT_FLOAT"}}}, {"name": "PartitionedCall/model_21/tf.concat_14/concat/axis", "op": "Const", "attr": {"value": {"tensor": {"dtype": "DT_INT32", "tensorShape": {}}}, "dtype": {"type": "DT_INT32"}}}, {"name": "unknown_116", "op": "Const", "attr": {"value": {"tensor": {"dtype": "DT_FLOAT", "tensorShape": {"dim": [{"size": "1"}, {"size": "1"}, {"size": "384"}, {"size": "256"}]}}}, "dtype": {"type": "DT_FLOAT"}}}, {"name": "unknown_117", "op": "Const", "attr": {"value": {"tensor": {"dtype": "DT_FLOAT", "tensorShape": {"dim": [{"size": "256"}]}}}, "dtype": {"type": "DT_FLOAT"}}}, {"name": "unknown_118", "op": "Const", "attr": {"value": {"tensor": {"dtype": "DT_INT64", "tensorShape": {"dim": [{"size": "4"}]}}}, "dtype": {"type": "DT_INT64"}}}, {"name": "unknown_119", "op": "Const", "attr": {"value": {"tensor": {"dtype": "DT_INT64", "tensorShape": {"dim": [{"size": "4"}]}}}, "dtype": {"type": "DT_INT64"}}}, {"name": "PartitionedCall/model_21/tf.strided_slice_15/ones_like", "op": "Const", "attr": {"value": {"tensor": {"dtype": "DT_INT64", "tensorShape": {"dim": [{"size": "4"}]}}}, "dtype": {"type": "DT_INT64"}}}, {"name": "unknown_120", "op": "Const", "attr": {"value": {"tensor": {"dtype": "DT_FLOAT", "tensorShape": {"dim": [{"size": "3"}, {"size": "3"}, {"size": "128"}, {"size": "128"}]}}}, "dtype": {"type": "DT_FLOAT"}}}, {"name": "unknown_121", "op": "Const", "attr": {"value": {"tensor": {"dtype": "DT_FLOAT", "tensorShape": {"dim": [{"size": "128"}]}}}, "dtype": {"type": "DT_FLOAT"}}}, {"name": "unknown_122", "op": "Const", "attr": {"value": {"tensor": {"dtype": "DT_FLOAT", "tensorShape": {"dim": [{"size": "3"}, {"size": "3"}, {"size": "128"}, {"size": "128"}]}}}, "dtype": {"type": "DT_FLOAT"}}}, {"name": "unknown_123", "op": "Const", "attr": {"value": {"tensor": {"dtype": "DT_FLOAT", "tensorShape": {"dim": [{"size": "128"}]}}}, "dtype": {"type": "DT_FLOAT"}}}, {"name": "PartitionedCall/model_21/tf.concat_16/concat/axis", "op": "Const", "attr": {"value": {"tensor": {"dtype": "DT_INT32", "tensorShape": {}}}, "dtype": {"type": "DT_INT32"}}}, {"name": "unknown_126", "op": "Const", "attr": {"value": {"tensor": {"dtype": "DT_FLOAT", "tensorShape": {"dim": [{"size": "1"}, {"size": "1"}, {"size": "384"}, {"size": "256"}]}}}, "dtype": {"type": "DT_FLOAT"}}}, {"name": "unknown_128", "op": "Const", "attr": {"value": {"tensor": {"dtype": "DT_FLOAT", "tensorShape": {"dim": [{"size": "256"}]}}}, "dtype": {"type": "DT_FLOAT"}}}, {"name": "unknown_130", "op": "Const", "attr": {"value": {"tensor": {"dtype": "DT_FLOAT", "tensorShape": {"dim": [{"size": "3"}, {"size": "3"}, {"size": "256"}, {"size": "80"}]}}}, "dtype": {"type": "DT_FLOAT"}}}, {"name": "unknown_135", "op": "Const", "attr": {"value": {"tensor": {"dtype": "DT_FLOAT", "tensorShape": {"dim": [{"size": "80"}]}}}, "dtype": {"type": "DT_FLOAT"}}}, {"name": "unknown_142", "op": "Const", "attr": {"value": {"tensor": {"dtype": "DT_FLOAT", "tensorShape": {"dim": [{"size": "3"}, {"size": "3"}, {"size": "80"}, {"size": "80"}]}}}, "dtype": {"type": "DT_FLOAT"}}}, {"name": "unknown_147", "op": "Const", "attr": {"value": {"tensor": {"dtype": "DT_FLOAT", "tensorShape": {"dim": [{"size": "80"}]}}}, "dtype": {"type": "DT_FLOAT"}}}, {"name": "unknown_152", "op": "Const", "attr": {"value": {"tensor": {"dtype": "DT_FLOAT", "tensorShape": {"dim": [{"size": "1"}, {"size": "1"}, {"size": "80"}, {"size": "80"}]}}}, "dtype": {"type": "DT_FLOAT"}}}, {"name": "unknown_159", "op": "Const", "attr": {"value": {"tensor": {"dtype": "DT_FLOAT", "tensorShape": {"dim": [{"size": "80"}]}}}, "dtype": {"type": "DT_FLOAT"}}}, {"name": "PartitionedCall/model_21/tf.concat_17/concat/axis", "op": "Const", "attr": {"value": {"tensor": {"dtype": "DT_INT32", "tensorShape": {}}}, "dtype": {"type": "DT_INT32"}}}, {"name": "PartitionedCall/model_21/tf.compat.v1.transpose_81/transpose/perm", "op": "Const", "attr": {"value": {"tensor": {"dtype": "DT_INT32", "tensorShape": {"dim": [{"size": "4"}]}}}, "dtype": {"type": "DT_INT32"}}}, {"name": "PartitionedCall/model_21/tf.reshape_8/Reshape/shape", "op": "Const", "attr": {"value": {"tensor": {"dtype": "DT_INT32", "tensorShape": {"dim": [{"size": "3"}]}}}, "dtype": {"type": "DT_INT32"}}}, {"name": "PartitionedCall/model_21/tf.concat_18/concat/axis", "op": "Const", "attr": {"value": {"tensor": {"dtype": "DT_INT32", "tensorShape": {}}}, "dtype": {"type": "DT_INT32"}}}, {"name": "PartitionedCall/model_21/tf.strided_slice_17/StridedSlice/begin", "op": "Const", "attr": {"value": {"tensor": {"dtype": "DT_INT32", "tensorShape": {"dim": [{"size": "3"}]}}}, "dtype": {"type": "DT_INT32"}}}, {"name": "PartitionedCall/model_21/tf.strided_slice_17/StridedSlice/end", "op": "Const", "attr": {"value": {"tensor": {"dtype": "DT_INT32", "tensorShape": {"dim": [{"size": "3"}]}}}, "dtype": {"type": "DT_INT32"}}}, {"name": "PartitionedCall/model_21/tf.strided_slice_17/ones_like", "op": "Const", "attr": {"value": {"tensor": {"dtype": "DT_INT32", "tensorShape": {"dim": [{"size": "3"}]}}}, "dtype": {"type": "DT_INT32"}}}, {"name": "PartitionedCall/model_21/output0/concat/axis", "op": "Const", "attr": {"value": {"tensor": {"dtype": "DT_INT32", "tensorShape": {}}}, "dtype": {"type": "DT_INT32"}}}, {"name": "images", "op": "Placeholder", "attr": {"shape": {"shape": {"dim": [{"size": "1"}, {"size": "640"}, {"size": "640"}, {"size": "3"}]}}, "dtype": {"type": "DT_FLOAT"}}}, {"name": "PartitionedCall/model_21/tf.compat.v1.pad/Pad", "op": "Pad", "input": ["images", "unknown"], "attr": {"Tpaddings": {"type": "DT_INT32"}, "T": {"type": "DT_FLOAT"}}}, {"name": "PartitionedCall/model_21/tf.math.add/Add", "op": "_FusedConv2D", "input": ["PartitionedCall/model_21/tf.compat.v1.pad/Pad", "unknown_0", "unknown_1"], "device": "/device:CPU:0", "attr": {"num_host_args": {"i": "0"}, "data_format": {"s": "TkhXQw=="}, "filter_format": {"s": "SFdJTw=="}, "strides": {"list": {"i": ["1", "2", "2", "1"]}}, "num_args": {"i": "1"}, "fused_ops": {"list": {"s": ["Qmlhc0FkZA=="]}}, "TArgs": {"list": {"type": ["DT_FLOAT"]}}, "padding": {"s": "VkFMSUQ="}, "use_cudnn_on_gpu": {"b": true}, "leakyrelu_alpha": {"f": 0.2}, "epsilon": {"f": 0.0}, "T": {"type": "DT_FLOAT"}, "explicit_paddings": {"list": {}}, "dilations": {"list": {"i": ["1", "1", "1", "1"]}}}}, {"name": "PartitionedCall/model_21/tf.math.sigmoid/Sigmoid", "op": "Sigmoid", "input": ["PartitionedCall/model_21/tf.math.add/Add"], "attr": {"T": {"type": "DT_FLOAT"}}}, {"name": "PartitionedCall/model_21/tf.math.multiply_3/Mul", "op": "Mul", "input": ["PartitionedCall/model_21/tf.math.add/Add", "PartitionedCall/model_21/tf.math.sigmoid/Sigmoid"], "attr": {"T": {"type": "DT_FLOAT"}}}, {"name": "PartitionedCall/model_21/tf.compat.v1.pad_1/Pad", "op": "Pad", "input": ["PartitionedCall/model_21/tf.math.multiply_3/Mul", "unknown_2"], "attr": {"Tpaddings": {"type": "DT_INT32"}, "T": {"type": "DT_FLOAT"}}}, {"name": "PartitionedCall/model_21/tf.math.add_1/Add", "op": "_FusedConv2D", "input": ["PartitionedCall/model_21/tf.compat.v1.pad_1/Pad", "unknown_3", "unknown_4"], "device": "/device:CPU:0", "attr": {"num_host_args": {"i": "0"}, "data_format": {"s": "TkhXQw=="}, "filter_format": {"s": "SFdJTw=="}, "strides": {"list": {"i": ["1", "2", "2", "1"]}}, "num_args": {"i": "1"}, "fused_ops": {"list": {"s": ["Qmlhc0FkZA=="]}}, "TArgs": {"list": {"type": ["DT_FLOAT"]}}, "padding": {"s": "VkFMSUQ="}, "use_cudnn_on_gpu": {"b": true}, "leakyrelu_alpha": {"f": 0.2}, "epsilon": {"f": 0.0}, "T": {"type": "DT_FLOAT"}, "explicit_paddings": {"list": {}}, "dilations": {"list": {"i": ["1", "1", "1", "1"]}}}}, {"name": "PartitionedCall/model_21/tf.math.sigmoid_1/Sigmoid", "op": "Sigmoid", "input": ["PartitionedCall/model_21/tf.math.add_1/Add"], "attr": {"T": {"type": "DT_FLOAT"}}}, {"name": "PartitionedCall/model_21/tf.math.multiply_7/Mul", "op": "Mul", "input": ["PartitionedCall/model_21/tf.math.add_1/Add", "PartitionedCall/model_21/tf.math.sigmoid_1/Sigmoid"], "attr": {"T": {"type": "DT_FLOAT"}}}, {"name": "PartitionedCall/model_21/tf.math.add_2/Add", "op": "_FusedConv2D", "input": ["PartitionedCall/model_21/tf.math.multiply_7/Mul", "unknown_5", "unknown_6"], "device": "/device:CPU:0", "attr": {"num_host_args": {"i": "0"}, "data_format": {"s": "TkhXQw=="}, "filter_format": {"s": "SFdJTw=="}, "fused_ops": {"list": {"s": ["Qmlhc0FkZA=="]}}, "num_args": {"i": "1"}, "strides": {"list": {"i": ["1", "1", "1", "1"]}}, "TArgs": {"list": {"type": ["DT_FLOAT"]}}, "padding": {"s": "U0FNRQ=="}, "use_cudnn_on_gpu": {"b": true}, "leakyrelu_alpha": {"f": 0.2}, "epsilon": {"f": 0.0}, "T": {"type": "DT_FLOAT"}, "explicit_paddings": {"list": {}}, "dilations": {"list": {"i": ["1", "1", "1", "1"]}}}}, {"name": "PartitionedCall/model_21/tf.math.sigmoid_2/Sigmoid", "op": "Sigmoid", "input": ["PartitionedCall/model_21/tf.math.add_2/Add"], "attr": {"T": {"type": "DT_FLOAT"}}}, {"name": "PartitionedCall/model_21/tf.math.multiply_11/Mul", "op": "Mul", "input": ["PartitionedCall/model_21/tf.math.add_2/Add", "PartitionedCall/model_21/tf.math.sigmoid_2/Sigmoid"], "attr": {"T": {"type": "DT_FLOAT"}}}, {"name": "PartitionedCall/model_21/tf.strided_slice/StridedSlice", "op": "StridedSlice", "input": ["PartitionedCall/model_21/tf.math.multiply_11/Mul", "unknown_13", "unknown_14", "PartitionedCall/model_21/tf.strided_slice/ones_like"], "attr": {"shrink_axis_mask": {"i": "0"}, "Index": {"type": "DT_INT64"}, "new_axis_mask": {"i": "0"}, "begin_mask": {"i": "15"}, "end_mask": {"i": "7"}, "T": {"type": "DT_FLOAT"}, "ellipsis_mask": {"i": "0"}}}, {"name": "PartitionedCall/model_21/tf.strided_slice_1/StridedSlice", "op": "StridedSlice", "input": ["PartitionedCall/model_21/tf.math.multiply_11/Mul", "unknown_7", "unknown_8", "PartitionedCall/model_21/tf.strided_slice_1/ones_like"], "attr": {"shrink_axis_mask": {"i": "0"}, "new_axis_mask": {"i": "0"}, "Index": {"type": "DT_INT64"}, "begin_mask": {"i": "7"}, "T": {"type": "DT_FLOAT"}, "end_mask": {"i": "7"}, "ellipsis_mask": {"i": "0"}}}, {"name": "PartitionedCall/model_21/tf.math.add_3/Add", "op": "_FusedConv2D", "input": ["PartitionedCall/model_21/tf.strided_slice_1/StridedSlice", "unknown_9", "unknown_10"], "device": "/device:CPU:0", "attr": {"num_host_args": {"i": "0"}, "data_format": {"s": "TkhXQw=="}, "filter_format": {"s": "SFdJTw=="}, "strides": {"list": {"i": ["1", "1", "1", "1"]}}, "num_args": {"i": "1"}, "fused_ops": {"list": {"s": ["Qmlhc0FkZA=="]}}, "TArgs": {"list": {"type": ["DT_FLOAT"]}}, "padding": {"s": "U0FNRQ=="}, "use_cudnn_on_gpu": {"b": true}, "leakyrelu_alpha": {"f": 0.2}, "epsilon": {"f": 0.0}, "T": {"type": "DT_FLOAT"}, "explicit_paddings": {"list": {}}, "dilations": {"list": {"i": ["1", "1", "1", "1"]}}}}, {"name": "PartitionedCall/model_21/tf.math.sigmoid_3/Sigmoid", "op": "Sigmoid", "input": ["PartitionedCall/model_21/tf.math.add_3/Add"], "attr": {"T": {"type": "DT_FLOAT"}}}, {"name": "PartitionedCall/model_21/tf.math.multiply_15/Mul", "op": "Mul", "input": ["PartitionedCall/model_21/tf.math.add_3/Add", "PartitionedCall/model_21/tf.math.sigmoid_3/Sigmoid"], "attr": {"T": {"type": "DT_FLOAT"}}}, {"name": "PartitionedCall/model_21/tf.math.add_4/Add", "op": "_FusedConv2D", "input": ["PartitionedCall/model_21/tf.math.multiply_15/Mul", "unknown_11", "unknown_12"], "device": "/device:CPU:0", "attr": {"num_host_args": {"i": "0"}, "data_format": {"s": "TkhXQw=="}, "filter_format": {"s": "SFdJTw=="}, "fused_ops": {"list": {"s": ["Qmlhc0FkZA=="]}}, "num_args": {"i": "1"}, "strides": {"list": {"i": ["1", "1", "1", "1"]}}, "TArgs": {"list": {"type": ["DT_FLOAT"]}}, "padding": {"s": "U0FNRQ=="}, "use_cudnn_on_gpu": {"b": true}, "leakyrelu_alpha": {"f": 0.2}, "epsilon": {"f": 0.0}, "T": {"type": "DT_FLOAT"}, "explicit_paddings": {"list": {}}, "dilations": {"list": {"i": ["1", "1", "1", "1"]}}}}, {"name": "PartitionedCall/model_21/tf.math.sigmoid_4/Sigmoid", "op": "Sigmoid", "input": ["PartitionedCall/model_21/tf.math.add_4/Add"], "attr": {"T": {"type": "DT_FLOAT"}}}, {"name": "PartitionedCall/model_21/tf.math.multiply_19/Mul", "op": "Mul", "input": ["PartitionedCall/model_21/tf.math.add_4/Add", "PartitionedCall/model_21/tf.math.sigmoid_4/Sigmoid"], "attr": {"T": {"type": "DT_FLOAT"}}}, {"name": "PartitionedCall/model_21/tf.math.add_6/Add", "op": "AddV2", "input": ["PartitionedCall/model_21/tf.strided_slice_1/StridedSlice", "PartitionedCall/model_21/tf.math.multiply_19/Mul"], "attr": {"T": {"type": "DT_FLOAT"}}}, {"name": "PartitionedCall/model_21/tf.concat/concat", "op": "ConcatV2", "input": ["PartitionedCall/model_21/tf.strided_slice/StridedSlice", "PartitionedCall/model_21/tf.strided_slice_1/StridedSlice", "PartitionedCall/model_21/tf.math.add_6/Add", "PartitionedCall/model_21/tf.concat/concat/axis"], "attr": {"N": {"i": "3"}, "T": {"type": "DT_FLOAT"}, "Tidx": {"type": "DT_INT32"}}}, {"name": "PartitionedCall/model_21/tf.math.add_7/Add", "op": "_FusedConv2D", "input": ["PartitionedCall/model_21/tf.concat/concat", "unknown_15", "unknown_16"], "device": "/device:CPU:0", "attr": {"num_host_args": {"i": "0"}, "data_format": {"s": "TkhXQw=="}, "filter_format": {"s": "SFdJTw=="}, "strides": {"list": {"i": ["1", "1", "1", "1"]}}, "num_args": {"i": "1"}, "fused_ops": {"list": {"s": ["Qmlhc0FkZA=="]}}, "TArgs": {"list": {"type": ["DT_FLOAT"]}}, "padding": {"s": "U0FNRQ=="}, "use_cudnn_on_gpu": {"b": true}, "leakyrelu_alpha": {"f": 0.2}, "epsilon": {"f": 0.0}, "T": {"type": "DT_FLOAT"}, "explicit_paddings": {"list": {}}, "dilations": {"list": {"i": ["1", "1", "1", "1"]}}}}, {"name": "PartitionedCall/model_21/tf.math.sigmoid_5/Sigmoid", "op": "Sigmoid", "input": ["PartitionedCall/model_21/tf.math.add_7/Add"], "attr": {"T": {"type": "DT_FLOAT"}}}, {"name": "PartitionedCall/model_21/tf.math.multiply_25/Mul", "op": "Mul", "input": ["PartitionedCall/model_21/tf.math.add_7/Add", "PartitionedCall/model_21/tf.math.sigmoid_5/Sigmoid"], "attr": {"T": {"type": "DT_FLOAT"}}}, {"name": "PartitionedCall/model_21/tf.compat.v1.pad_2/Pad", "op": "Pad", "input": ["PartitionedCall/model_21/tf.math.multiply_25/Mul", "unknown_17"], "attr": {"Tpaddings": {"type": "DT_INT32"}, "T": {"type": "DT_FLOAT"}}}, {"name": "PartitionedCall/model_21/tf.math.add_8/Add", "op": "_FusedConv2D", "input": ["PartitionedCall/model_21/tf.compat.v1.pad_2/Pad", "unknown_18", "unknown_19"], "device": "/device:CPU:0", "attr": {"num_host_args": {"i": "0"}, "data_format": {"s": "TkhXQw=="}, "filter_format": {"s": "SFdJTw=="}, "fused_ops": {"list": {"s": ["Qmlhc0FkZA=="]}}, "num_args": {"i": "1"}, "strides": {"list": {"i": ["1", "2", "2", "1"]}}, "TArgs": {"list": {"type": ["DT_FLOAT"]}}, "padding": {"s": "VkFMSUQ="}, "use_cudnn_on_gpu": {"b": true}, "leakyrelu_alpha": {"f": 0.2}, "epsilon": {"f": 0.0}, "T": {"type": "DT_FLOAT"}, "explicit_paddings": {"list": {}}, "dilations": {"list": {"i": ["1", "1", "1", "1"]}}}}, {"name": "PartitionedCall/model_21/tf.math.sigmoid_6/Sigmoid", "op": "Sigmoid", "input": ["PartitionedCall/model_21/tf.math.add_8/Add"], "attr": {"T": {"type": "DT_FLOAT"}}}, {"name": "PartitionedCall/model_21/tf.math.multiply_29/Mul", "op": "Mul", "input": ["PartitionedCall/model_21/tf.math.add_8/Add", "PartitionedCall/model_21/tf.math.sigmoid_6/Sigmoid"], "attr": {"T": {"type": "DT_FLOAT"}}}, {"name": "PartitionedCall/model_21/tf.math.add_9/Add", "op": "_FusedConv2D", "input": ["PartitionedCall/model_21/tf.math.multiply_29/Mul", "unknown_20", "unknown_21"], "device": "/device:CPU:0", "attr": {"num_host_args": {"i": "0"}, "data_format": {"s": "TkhXQw=="}, "filter_format": {"s": "SFdJTw=="}, "strides": {"list": {"i": ["1", "1", "1", "1"]}}, "num_args": {"i": "1"}, "fused_ops": {"list": {"s": ["Qmlhc0FkZA=="]}}, "TArgs": {"list": {"type": ["DT_FLOAT"]}}, "padding": {"s": "U0FNRQ=="}, "use_cudnn_on_gpu": {"b": true}, "leakyrelu_alpha": {"f": 0.2}, "epsilon": {"f": 0.0}, "T": {"type": "DT_FLOAT"}, "explicit_paddings": {"list": {}}, "dilations": {"list": {"i": ["1", "1", "1", "1"]}}}}, {"name": "PartitionedCall/model_21/tf.math.sigmoid_7/Sigmoid", "op": "Sigmoid", "input": ["PartitionedCall/model_21/tf.math.add_9/Add"], "attr": {"T": {"type": "DT_FLOAT"}}}, {"name": "PartitionedCall/model_21/tf.math.multiply_33/Mul", "op": "Mul", "input": ["PartitionedCall/model_21/tf.math.add_9/Add", "PartitionedCall/model_21/tf.math.sigmoid_7/Sigmoid"], "attr": {"T": {"type": "DT_FLOAT"}}}, {"name": "PartitionedCall/model_21/tf.strided_slice_2/StridedSlice", "op": "StridedSlice", "input": ["PartitionedCall/model_21/tf.math.multiply_33/Mul", "unknown_32", "unknown_33", "PartitionedCall/model_21/tf.strided_slice_2/ones_like"], "attr": {"shrink_axis_mask": {"i": "0"}, "new_axis_mask": {"i": "0"}, "Index": {"type": "DT_INT64"}, "begin_mask": {"i": "15"}, "end_mask": {"i": "7"}, "T": {"type": "DT_FLOAT"}, "ellipsis_mask": {"i": "0"}}}, {"name": "PartitionedCall/model_21/tf.strided_slice_3/StridedSlice", "op": "StridedSlice", "input": ["PartitionedCall/model_21/tf.math.multiply_33/Mul", "unknown_22", "unknown_23", "PartitionedCall/model_21/tf.strided_slice_3/ones_like"], "attr": {"shrink_axis_mask": {"i": "0"}, "new_axis_mask": {"i": "0"}, "Index": {"type": "DT_INT64"}, "begin_mask": {"i": "7"}, "T": {"type": "DT_FLOAT"}, "end_mask": {"i": "7"}, "ellipsis_mask": {"i": "0"}}}, {"name": "PartitionedCall/model_21/tf.math.add_10/Add", "op": "_FusedConv2D", "input": ["PartitionedCall/model_21/tf.strided_slice_3/StridedSlice", "unknown_24", "unknown_25"], "device": "/device:CPU:0", "attr": {"num_host_args": {"i": "0"}, "data_format": {"s": "TkhXQw=="}, "filter_format": {"s": "SFdJTw=="}, "fused_ops": {"list": {"s": ["Qmlhc0FkZA=="]}}, "num_args": {"i": "1"}, "strides": {"list": {"i": ["1", "1", "1", "1"]}}, "TArgs": {"list": {"type": ["DT_FLOAT"]}}, "padding": {"s": "U0FNRQ=="}, "use_cudnn_on_gpu": {"b": true}, "leakyrelu_alpha": {"f": 0.2}, "epsilon": {"f": 0.0}, "T": {"type": "DT_FLOAT"}, "explicit_paddings": {"list": {}}, "dilations": {"list": {"i": ["1", "1", "1", "1"]}}}}, {"name": "PartitionedCall/model_21/tf.math.sigmoid_8/Sigmoid", "op": "Sigmoid", "input": ["PartitionedCall/model_21/tf.math.add_10/Add"], "attr": {"T": {"type": "DT_FLOAT"}}}, {"name": "PartitionedCall/model_21/tf.math.multiply_37/Mul", "op": "Mul", "input": ["PartitionedCall/model_21/tf.math.add_10/Add", "PartitionedCall/model_21/tf.math.sigmoid_8/Sigmoid"], "attr": {"T": {"type": "DT_FLOAT"}}}, {"name": "PartitionedCall/model_21/tf.math.add_11/Add", "op": "_FusedConv2D", "input": ["PartitionedCall/model_21/tf.math.multiply_37/Mul", "unknown_26", "unknown_27"], "device": "/device:CPU:0", "attr": {"num_host_args": {"i": "0"}, "data_format": {"s": "TkhXQw=="}, "filter_format": {"s": "SFdJTw=="}, "fused_ops": {"list": {"s": ["Qmlhc0FkZA=="]}}, "num_args": {"i": "1"}, "strides": {"list": {"i": ["1", "1", "1", "1"]}}, "TArgs": {"list": {"type": ["DT_FLOAT"]}}, "padding": {"s": "U0FNRQ=="}, "use_cudnn_on_gpu": {"b": true}, "leakyrelu_alpha": {"f": 0.2}, "epsilon": {"f": 0.0}, "T": {"type": "DT_FLOAT"}, "explicit_paddings": {"list": {}}, "dilations": {"list": {"i": ["1", "1", "1", "1"]}}}}, {"name": "PartitionedCall/model_21/tf.math.sigmoid_9/Sigmoid", "op": "Sigmoid", "input": ["PartitionedCall/model_21/tf.math.add_11/Add"], "attr": {"T": {"type": "DT_FLOAT"}}}, {"name": "PartitionedCall/model_21/tf.math.multiply_41/Mul", "op": "Mul", "input": ["PartitionedCall/model_21/tf.math.add_11/Add", "PartitionedCall/model_21/tf.math.sigmoid_9/Sigmoid"], "attr": {"T": {"type": "DT_FLOAT"}}}, {"name": "PartitionedCall/model_21/tf.math.add_13/Add", "op": "AddV2", "input": ["PartitionedCall/model_21/tf.strided_slice_3/StridedSlice", "PartitionedCall/model_21/tf.math.multiply_41/Mul"], "attr": {"T": {"type": "DT_FLOAT"}}}, {"name": "PartitionedCall/model_21/tf.math.add_14/Add", "op": "_FusedConv2D", "input": ["PartitionedCall/model_21/tf.math.add_13/Add", "unknown_28", "unknown_29"], "device": "/device:CPU:0", "attr": {"num_host_args": {"i": "0"}, "data_format": {"s": "TkhXQw=="}, "filter_format": {"s": "SFdJTw=="}, "fused_ops": {"list": {"s": ["Qmlhc0FkZA=="]}}, "num_args": {"i": "1"}, "strides": {"list": {"i": ["1", "1", "1", "1"]}}, "TArgs": {"list": {"type": ["DT_FLOAT"]}}, "padding": {"s": "U0FNRQ=="}, "use_cudnn_on_gpu": {"b": true}, "leakyrelu_alpha": {"f": 0.2}, "epsilon": {"f": 0.0}, "T": {"type": "DT_FLOAT"}, "explicit_paddings": {"list": {}}, "dilations": {"list": {"i": ["1", "1", "1", "1"]}}}}, {"name": "PartitionedCall/model_21/tf.math.sigmoid_10/Sigmoid", "op": "Sigmoid", "input": ["PartitionedCall/model_21/tf.math.add_14/Add"], "attr": {"T": {"type": "DT_FLOAT"}}}, {"name": "PartitionedCall/model_21/tf.math.multiply_47/Mul", "op": "Mul", "input": ["PartitionedCall/model_21/tf.math.add_14/Add", "PartitionedCall/model_21/tf.math.sigmoid_10/Sigmoid"], "attr": {"T": {"type": "DT_FLOAT"}}}, {"name": "PartitionedCall/model_21/tf.math.add_15/Add", "op": "_FusedConv2D", "input": ["PartitionedCall/model_21/tf.math.multiply_47/Mul", "unknown_30", "unknown_31"], "device": "/device:CPU:0", "attr": {"num_host_args": {"i": "0"}, "data_format": {"s": "TkhXQw=="}, "filter_format": {"s": "SFdJTw=="}, "strides": {"list": {"i": ["1", "1", "1", "1"]}}, "num_args": {"i": "1"}, "fused_ops": {"list": {"s": ["Qmlhc0FkZA=="]}}, "TArgs": {"list": {"type": ["DT_FLOAT"]}}, "padding": {"s": "U0FNRQ=="}, "use_cudnn_on_gpu": {"b": true}, "leakyrelu_alpha": {"f": 0.2}, "epsilon": {"f": 0.0}, "T": {"type": "DT_FLOAT"}, "explicit_paddings": {"list": {}}, "dilations": {"list": {"i": ["1", "1", "1", "1"]}}}}, {"name": "PartitionedCall/model_21/tf.math.sigmoid_11/Sigmoid", "op": "Sigmoid", "input": ["PartitionedCall/model_21/tf.math.add_15/Add"], "attr": {"T": {"type": "DT_FLOAT"}}}, {"name": "PartitionedCall/model_21/tf.math.multiply_51/Mul", "op": "Mul", "input": ["PartitionedCall/model_21/tf.math.add_15/Add", "PartitionedCall/model_21/tf.math.sigmoid_11/Sigmoid"], "attr": {"T": {"type": "DT_FLOAT"}}}, {"name": "PartitionedCall/model_21/tf.math.add_17/Add", "op": "AddV2", "input": ["PartitionedCall/model_21/tf.math.add_13/Add", "PartitionedCall/model_21/tf.math.multiply_51/Mul"], "attr": {"T": {"type": "DT_FLOAT"}}}, {"name": "PartitionedCall/model_21/tf.concat_1/concat", "op": "ConcatV2", "input": ["PartitionedCall/model_21/tf.strided_slice_2/StridedSlice", "PartitionedCall/model_21/tf.strided_slice_3/StridedSlice", "PartitionedCall/model_21/tf.math.add_13/Add", "PartitionedCall/model_21/tf.math.add_17/Add", "PartitionedCall/model_21/tf.concat_1/concat/axis"], "attr": {"N": {"i": "4"}, "Tidx": {"type": "DT_INT32"}, "T": {"type": "DT_FLOAT"}}}, {"name": "PartitionedCall/model_21/tf.math.add_18/Add", "op": "_FusedConv2D", "input": ["PartitionedCall/model_21/tf.concat_1/concat", "unknown_34", "unknown_35"], "device": "/device:CPU:0", "attr": {"num_host_args": {"i": "0"}, "data_format": {"s": "TkhXQw=="}, "filter_format": {"s": "SFdJTw=="}, "fused_ops": {"list": {"s": ["Qmlhc0FkZA=="]}}, "num_args": {"i": "1"}, "strides": {"list": {"i": ["1", "1", "1", "1"]}}, "TArgs": {"list": {"type": ["DT_FLOAT"]}}, "padding": {"s": "U0FNRQ=="}, "use_cudnn_on_gpu": {"b": true}, "leakyrelu_alpha": {"f": 0.2}, "epsilon": {"f": 0.0}, "T": {"type": "DT_FLOAT"}, "explicit_paddings": {"list": {}}, "dilations": {"list": {"i": ["1", "1", "1", "1"]}}}}, {"name": "PartitionedCall/model_21/tf.math.sigmoid_12/Sigmoid", "op": "Sigmoid", "input": ["PartitionedCall/model_21/tf.math.add_18/Add"], "attr": {"T": {"type": "DT_FLOAT"}}}, {"name": "PartitionedCall/model_21/tf.math.multiply_57/Mul", "op": "Mul", "input": ["PartitionedCall/model_21/tf.math.add_18/Add", "PartitionedCall/model_21/tf.math.sigmoid_12/Sigmoid"], "attr": {"T": {"type": "DT_FLOAT"}}}, {"name": "PartitionedCall/model_21/tf.compat.v1.pad_3/Pad", "op": "Pad", "input": ["PartitionedCall/model_21/tf.math.multiply_57/Mul", "unknown_36"], "attr": {"Tpaddings": {"type": "DT_INT32"}, "T": {"type": "DT_FLOAT"}}}, {"name": "PartitionedCall/model_21/tf.math.add_19/Add", "op": "_FusedConv2D", "input": ["PartitionedCall/model_21/tf.compat.v1.pad_3/Pad", "unknown_37", "unknown_38"], "device": "/device:CPU:0", "attr": {"num_host_args": {"i": "0"}, "data_format": {"s": "TkhXQw=="}, "filter_format": {"s": "SFdJTw=="}, "strides": {"list": {"i": ["1", "2", "2", "1"]}}, "num_args": {"i": "1"}, "fused_ops": {"list": {"s": ["Qmlhc0FkZA=="]}}, "TArgs": {"list": {"type": ["DT_FLOAT"]}}, "padding": {"s": "VkFMSUQ="}, "use_cudnn_on_gpu": {"b": true}, "leakyrelu_alpha": {"f": 0.2}, "epsilon": {"f": 0.0}, "T": {"type": "DT_FLOAT"}, "explicit_paddings": {"list": {}}, "dilations": {"list": {"i": ["1", "1", "1", "1"]}}}}, {"name": "PartitionedCall/model_21/tf.math.sigmoid_13/Sigmoid", "op": "Sigmoid", "input": ["PartitionedCall/model_21/tf.math.add_19/Add"], "attr": {"T": {"type": "DT_FLOAT"}}}, {"name": "PartitionedCall/model_21/tf.math.multiply_61/Mul", "op": "Mul", "input": ["PartitionedCall/model_21/tf.math.add_19/Add", "PartitionedCall/model_21/tf.math.sigmoid_13/Sigmoid"], "attr": {"T": {"type": "DT_FLOAT"}}}, {"name": "PartitionedCall/model_21/tf.math.add_20/Add", "op": "_FusedConv2D", "input": ["PartitionedCall/model_21/tf.math.multiply_61/Mul", "unknown_39", "unknown_40"], "device": "/device:CPU:0", "attr": {"num_host_args": {"i": "0"}, "data_format": {"s": "TkhXQw=="}, "filter_format": {"s": "SFdJTw=="}, "fused_ops": {"list": {"s": ["Qmlhc0FkZA=="]}}, "num_args": {"i": "1"}, "strides": {"list": {"i": ["1", "1", "1", "1"]}}, "TArgs": {"list": {"type": ["DT_FLOAT"]}}, "padding": {"s": "U0FNRQ=="}, "use_cudnn_on_gpu": {"b": true}, "leakyrelu_alpha": {"f": 0.2}, "epsilon": {"f": 0.0}, "T": {"type": "DT_FLOAT"}, "explicit_paddings": {"list": {}}, "dilations": {"list": {"i": ["1", "1", "1", "1"]}}}}, {"name": "PartitionedCall/model_21/tf.math.sigmoid_14/Sigmoid", "op": "Sigmoid", "input": ["PartitionedCall/model_21/tf.math.add_20/Add"], "attr": {"T": {"type": "DT_FLOAT"}}}, {"name": "PartitionedCall/model_21/tf.math.multiply_65/Mul", "op": "Mul", "input": ["PartitionedCall/model_21/tf.math.add_20/Add", "PartitionedCall/model_21/tf.math.sigmoid_14/Sigmoid"], "attr": {"T": {"type": "DT_FLOAT"}}}, {"name": "PartitionedCall/model_21/tf.strided_slice_4/StridedSlice", "op": "StridedSlice", "input": ["PartitionedCall/model_21/tf.math.multiply_65/Mul", "unknown_51", "unknown_52", "PartitionedCall/model_21/tf.strided_slice_4/ones_like"], "attr": {"shrink_axis_mask": {"i": "0"}, "new_axis_mask": {"i": "0"}, "Index": {"type": "DT_INT64"}, "begin_mask": {"i": "15"}, "T": {"type": "DT_FLOAT"}, "end_mask": {"i": "7"}, "ellipsis_mask": {"i": "0"}}}, {"name": "PartitionedCall/model_21/tf.strided_slice_5/StridedSlice", "op": "StridedSlice", "input": ["PartitionedCall/model_21/tf.math.multiply_65/Mul", "unknown_41", "unknown_42", "PartitionedCall/model_21/tf.strided_slice_5/ones_like"], "attr": {"shrink_axis_mask": {"i": "0"}, "Index": {"type": "DT_INT64"}, "new_axis_mask": {"i": "0"}, "begin_mask": {"i": "7"}, "end_mask": {"i": "7"}, "T": {"type": "DT_FLOAT"}, "ellipsis_mask": {"i": "0"}}}, {"name": "PartitionedCall/model_21/tf.math.add_21/Add", "op": "_FusedConv2D", "input": ["PartitionedCall/model_21/tf.strided_slice_5/StridedSlice", "unknown_43", "unknown_44"], "device": "/device:CPU:0", "attr": {"num_host_args": {"i": "0"}, "data_format": {"s": "TkhXQw=="}, "filter_format": {"s": "SFdJTw=="}, "fused_ops": {"list": {"s": ["Qmlhc0FkZA=="]}}, "num_args": {"i": "1"}, "strides": {"list": {"i": ["1", "1", "1", "1"]}}, "TArgs": {"list": {"type": ["DT_FLOAT"]}}, "padding": {"s": "U0FNRQ=="}, "use_cudnn_on_gpu": {"b": true}, "leakyrelu_alpha": {"f": 0.2}, "epsilon": {"f": 0.0}, "T": {"type": "DT_FLOAT"}, "explicit_paddings": {"list": {}}, "dilations": {"list": {"i": ["1", "1", "1", "1"]}}}}, {"name": "PartitionedCall/model_21/tf.math.sigmoid_15/Sigmoid", "op": "Sigmoid", "input": ["PartitionedCall/model_21/tf.math.add_21/Add"], "attr": {"T": {"type": "DT_FLOAT"}}}, {"name": "PartitionedCall/model_21/tf.math.multiply_69/Mul", "op": "Mul", "input": ["PartitionedCall/model_21/tf.math.add_21/Add", "PartitionedCall/model_21/tf.math.sigmoid_15/Sigmoid"], "attr": {"T": {"type": "DT_FLOAT"}}}, {"name": "PartitionedCall/model_21/tf.math.add_22/Add", "op": "_FusedConv2D", "input": ["PartitionedCall/model_21/tf.math.multiply_69/Mul", "unknown_45", "unknown_46"], "device": "/device:CPU:0", "attr": {"num_host_args": {"i": "0"}, "data_format": {"s": "TkhXQw=="}, "filter_format": {"s": "SFdJTw=="}, "fused_ops": {"list": {"s": ["Qmlhc0FkZA=="]}}, "num_args": {"i": "1"}, "strides": {"list": {"i": ["1", "1", "1", "1"]}}, "TArgs": {"list": {"type": ["DT_FLOAT"]}}, "padding": {"s": "U0FNRQ=="}, "use_cudnn_on_gpu": {"b": true}, "leakyrelu_alpha": {"f": 0.2}, "epsilon": {"f": 0.0}, "T": {"type": "DT_FLOAT"}, "explicit_paddings": {"list": {}}, "dilations": {"list": {"i": ["1", "1", "1", "1"]}}}}, {"name": "PartitionedCall/model_21/tf.math.sigmoid_16/Sigmoid", "op": "Sigmoid", "input": ["PartitionedCall/model_21/tf.math.add_22/Add"], "attr": {"T": {"type": "DT_FLOAT"}}}, {"name": "PartitionedCall/model_21/tf.math.multiply_73/Mul", "op": "Mul", "input": ["PartitionedCall/model_21/tf.math.add_22/Add", "PartitionedCall/model_21/tf.math.sigmoid_16/Sigmoid"], "attr": {"T": {"type": "DT_FLOAT"}}}, {"name": "PartitionedCall/model_21/tf.math.add_24/Add", "op": "AddV2", "input": ["PartitionedCall/model_21/tf.strided_slice_5/StridedSlice", "PartitionedCall/model_21/tf.math.multiply_73/Mul"], "attr": {"T": {"type": "DT_FLOAT"}}}, {"name": "PartitionedCall/model_21/tf.math.add_25/Add", "op": "_FusedConv2D", "input": ["PartitionedCall/model_21/tf.math.add_24/Add", "unknown_47", "unknown_48"], "device": "/device:CPU:0", "attr": {"num_host_args": {"i": "0"}, "data_format": {"s": "TkhXQw=="}, "filter_format": {"s": "SFdJTw=="}, "strides": {"list": {"i": ["1", "1", "1", "1"]}}, "num_args": {"i": "1"}, "fused_ops": {"list": {"s": ["Qmlhc0FkZA=="]}}, "TArgs": {"list": {"type": ["DT_FLOAT"]}}, "padding": {"s": "U0FNRQ=="}, "use_cudnn_on_gpu": {"b": true}, "leakyrelu_alpha": {"f": 0.2}, "epsilon": {"f": 0.0}, "T": {"type": "DT_FLOAT"}, "explicit_paddings": {"list": {}}, "dilations": {"list": {"i": ["1", "1", "1", "1"]}}}}, {"name": "PartitionedCall/model_21/tf.math.sigmoid_17/Sigmoid", "op": "Sigmoid", "input": ["PartitionedCall/model_21/tf.math.add_25/Add"], "attr": {"T": {"type": "DT_FLOAT"}}}, {"name": "PartitionedCall/model_21/tf.math.multiply_79/Mul", "op": "Mul", "input": ["PartitionedCall/model_21/tf.math.add_25/Add", "PartitionedCall/model_21/tf.math.sigmoid_17/Sigmoid"], "attr": {"T": {"type": "DT_FLOAT"}}}, {"name": "PartitionedCall/model_21/tf.math.add_26/Add", "op": "_FusedConv2D", "input": ["PartitionedCall/model_21/tf.math.multiply_79/Mul", "unknown_49", "unknown_50"], "device": "/device:CPU:0", "attr": {"num_host_args": {"i": "0"}, "data_format": {"s": "TkhXQw=="}, "filter_format": {"s": "SFdJTw=="}, "fused_ops": {"list": {"s": ["Qmlhc0FkZA=="]}}, "num_args": {"i": "1"}, "strides": {"list": {"i": ["1", "1", "1", "1"]}}, "TArgs": {"list": {"type": ["DT_FLOAT"]}}, "padding": {"s": "U0FNRQ=="}, "use_cudnn_on_gpu": {"b": true}, "leakyrelu_alpha": {"f": 0.2}, "epsilon": {"f": 0.0}, "T": {"type": "DT_FLOAT"}, "explicit_paddings": {"list": {}}, "dilations": {"list": {"i": ["1", "1", "1", "1"]}}}}, {"name": "PartitionedCall/model_21/tf.math.sigmoid_18/Sigmoid", "op": "Sigmoid", "input": ["PartitionedCall/model_21/tf.math.add_26/Add"], "attr": {"T": {"type": "DT_FLOAT"}}}, {"name": "PartitionedCall/model_21/tf.math.multiply_83/Mul", "op": "Mul", "input": ["PartitionedCall/model_21/tf.math.add_26/Add", "PartitionedCall/model_21/tf.math.sigmoid_18/Sigmoid"], "attr": {"T": {"type": "DT_FLOAT"}}}, {"name": "PartitionedCall/model_21/tf.math.add_28/Add", "op": "AddV2", "input": ["PartitionedCall/model_21/tf.math.add_24/Add", "PartitionedCall/model_21/tf.math.multiply_83/Mul"], "attr": {"T": {"type": "DT_FLOAT"}}}, {"name": "PartitionedCall/model_21/tf.concat_2/concat", "op": "ConcatV2", "input": ["PartitionedCall/model_21/tf.strided_slice_4/StridedSlice", "PartitionedCall/model_21/tf.strided_slice_5/StridedSlice", "PartitionedCall/model_21/tf.math.add_24/Add", "PartitionedCall/model_21/tf.math.add_28/Add", "PartitionedCall/model_21/tf.concat_2/concat/axis"], "attr": {"N": {"i": "4"}, "Tidx": {"type": "DT_INT32"}, "T": {"type": "DT_FLOAT"}}}, {"name": "PartitionedCall/model_21/tf.math.add_29/Add", "op": "_FusedConv2D", "input": ["PartitionedCall/model_21/tf.concat_2/concat", "unknown_53", "unknown_54"], "device": "/device:CPU:0", "attr": {"num_host_args": {"i": "0"}, "data_format": {"s": "TkhXQw=="}, "filter_format": {"s": "SFdJTw=="}, "fused_ops": {"list": {"s": ["Qmlhc0FkZA=="]}}, "num_args": {"i": "1"}, "strides": {"list": {"i": ["1", "1", "1", "1"]}}, "TArgs": {"list": {"type": ["DT_FLOAT"]}}, "padding": {"s": "U0FNRQ=="}, "use_cudnn_on_gpu": {"b": true}, "leakyrelu_alpha": {"f": 0.2}, "epsilon": {"f": 0.0}, "T": {"type": "DT_FLOAT"}, "explicit_paddings": {"list": {}}, "dilations": {"list": {"i": ["1", "1", "1", "1"]}}}}, {"name": "PartitionedCall/model_21/tf.math.sigmoid_19/Sigmoid", "op": "Sigmoid", "input": ["PartitionedCall/model_21/tf.math.add_29/Add"], "attr": {"T": {"type": "DT_FLOAT"}}}, {"name": "PartitionedCall/model_21/tf.math.multiply_89/Mul", "op": "Mul", "input": ["PartitionedCall/model_21/tf.math.add_29/Add", "PartitionedCall/model_21/tf.math.sigmoid_19/Sigmoid"], "attr": {"T": {"type": "DT_FLOAT"}}}, {"name": "PartitionedCall/model_21/tf.compat.v1.pad_4/Pad", "op": "Pad", "input": ["PartitionedCall/model_21/tf.math.multiply_89/Mul", "unknown_55"], "attr": {"Tpaddings": {"type": "DT_INT32"}, "T": {"type": "DT_FLOAT"}}}, {"name": "PartitionedCall/model_21/tf.math.add_30/Add", "op": "_FusedConv2D", "input": ["PartitionedCall/model_21/tf.compat.v1.pad_4/Pad", "unknown_56", "unknown_57"], "device": "/device:CPU:0", "attr": {"num_host_args": {"i": "0"}, "data_format": {"s": "TkhXQw=="}, "filter_format": {"s": "SFdJTw=="}, "fused_ops": {"list": {"s": ["Qmlhc0FkZA=="]}}, "num_args": {"i": "1"}, "strides": {"list": {"i": ["1", "2", "2", "1"]}}, "TArgs": {"list": {"type": ["DT_FLOAT"]}}, "padding": {"s": "VkFMSUQ="}, "use_cudnn_on_gpu": {"b": true}, "leakyrelu_alpha": {"f": 0.2}, "epsilon": {"f": 0.0}, "T": {"type": "DT_FLOAT"}, "explicit_paddings": {"list": {}}, "dilations": {"list": {"i": ["1", "1", "1", "1"]}}}}, {"name": "PartitionedCall/model_21/tf.math.sigmoid_20/Sigmoid", "op": "Sigmoid", "input": ["PartitionedCall/model_21/tf.math.add_30/Add"], "attr": {"T": {"type": "DT_FLOAT"}}}, {"name": "PartitionedCall/model_21/tf.math.multiply_93/Mul", "op": "Mul", "input": ["PartitionedCall/model_21/tf.math.add_30/Add", "PartitionedCall/model_21/tf.math.sigmoid_20/Sigmoid"], "attr": {"T": {"type": "DT_FLOAT"}}}, {"name": "PartitionedCall/model_21/tf.math.add_31/Add", "op": "_FusedConv2D", "input": ["PartitionedCall/model_21/tf.math.multiply_93/Mul", "unknown_58", "unknown_59"], "device": "/device:CPU:0", "attr": {"num_host_args": {"i": "0"}, "data_format": {"s": "TkhXQw=="}, "filter_format": {"s": "SFdJTw=="}, "strides": {"list": {"i": ["1", "1", "1", "1"]}}, "num_args": {"i": "1"}, "fused_ops": {"list": {"s": ["Qmlhc0FkZA=="]}}, "TArgs": {"list": {"type": ["DT_FLOAT"]}}, "padding": {"s": "U0FNRQ=="}, "use_cudnn_on_gpu": {"b": true}, "leakyrelu_alpha": {"f": 0.2}, "epsilon": {"f": 0.0}, "T": {"type": "DT_FLOAT"}, "explicit_paddings": {"list": {}}, "dilations": {"list": {"i": ["1", "1", "1", "1"]}}}}, {"name": "PartitionedCall/model_21/tf.math.sigmoid_21/Sigmoid", "op": "Sigmoid", "input": ["PartitionedCall/model_21/tf.math.add_31/Add"], "attr": {"T": {"type": "DT_FLOAT"}}}, {"name": "PartitionedCall/model_21/tf.math.multiply_97/Mul", "op": "Mul", "input": ["PartitionedCall/model_21/tf.math.add_31/Add", "PartitionedCall/model_21/tf.math.sigmoid_21/Sigmoid"], "attr": {"T": {"type": "DT_FLOAT"}}}, {"name": "PartitionedCall/model_21/tf.strided_slice_6/StridedSlice", "op": "StridedSlice", "input": ["PartitionedCall/model_21/tf.math.multiply_97/Mul", "unknown_66", "unknown_67", "PartitionedCall/model_21/tf.strided_slice_6/ones_like"], "attr": {"shrink_axis_mask": {"i": "0"}, "Index": {"type": "DT_INT64"}, "new_axis_mask": {"i": "0"}, "begin_mask": {"i": "15"}, "T": {"type": "DT_FLOAT"}, "end_mask": {"i": "7"}, "ellipsis_mask": {"i": "0"}}}, {"name": "PartitionedCall/model_21/tf.strided_slice_7/StridedSlice", "op": "StridedSlice", "input": ["PartitionedCall/model_21/tf.math.multiply_97/Mul", "unknown_60", "unknown_61", "PartitionedCall/model_21/tf.strided_slice_7/ones_like"], "attr": {"shrink_axis_mask": {"i": "0"}, "Index": {"type": "DT_INT64"}, "new_axis_mask": {"i": "0"}, "begin_mask": {"i": "7"}, "end_mask": {"i": "7"}, "T": {"type": "DT_FLOAT"}, "ellipsis_mask": {"i": "0"}}}, {"name": "PartitionedCall/model_21/tf.math.add_32/Add", "op": "_FusedConv2D", "input": ["PartitionedCall/model_21/tf.strided_slice_7/StridedSlice", "unknown_62", "unknown_63"], "device": "/device:CPU:0", "attr": {"num_host_args": {"i": "0"}, "data_format": {"s": "TkhXQw=="}, "filter_format": {"s": "SFdJTw=="}, "fused_ops": {"list": {"s": ["Qmlhc0FkZA=="]}}, "num_args": {"i": "1"}, "strides": {"list": {"i": ["1", "1", "1", "1"]}}, "TArgs": {"list": {"type": ["DT_FLOAT"]}}, "padding": {"s": "U0FNRQ=="}, "use_cudnn_on_gpu": {"b": true}, "leakyrelu_alpha": {"f": 0.2}, "epsilon": {"f": 0.0}, "T": {"type": "DT_FLOAT"}, "explicit_paddings": {"list": {}}, "dilations": {"list": {"i": ["1", "1", "1", "1"]}}}}, {"name": "PartitionedCall/model_21/tf.math.sigmoid_22/Sigmoid", "op": "Sigmoid", "input": ["PartitionedCall/model_21/tf.math.add_32/Add"], "attr": {"T": {"type": "DT_FLOAT"}}}, {"name": "PartitionedCall/model_21/tf.math.multiply_101/Mul", "op": "Mul", "input": ["PartitionedCall/model_21/tf.math.add_32/Add", "PartitionedCall/model_21/tf.math.sigmoid_22/Sigmoid"], "attr": {"T": {"type": "DT_FLOAT"}}}, {"name": "PartitionedCall/model_21/tf.math.add_33/Add", "op": "_FusedConv2D", "input": ["PartitionedCall/model_21/tf.math.multiply_101/Mul", "unknown_64", "unknown_65"], "device": "/device:CPU:0", "attr": {"num_host_args": {"i": "0"}, "data_format": {"s": "TkhXQw=="}, "filter_format": {"s": "SFdJTw=="}, "strides": {"list": {"i": ["1", "1", "1", "1"]}}, "num_args": {"i": "1"}, "fused_ops": {"list": {"s": ["Qmlhc0FkZA=="]}}, "TArgs": {"list": {"type": ["DT_FLOAT"]}}, "padding": {"s": "U0FNRQ=="}, "use_cudnn_on_gpu": {"b": true}, "leakyrelu_alpha": {"f": 0.2}, "epsilon": {"f": 0.0}, "T": {"type": "DT_FLOAT"}, "explicit_paddings": {"list": {}}, "dilations": {"list": {"i": ["1", "1", "1", "1"]}}}}, {"name": "PartitionedCall/model_21/tf.math.sigmoid_23/Sigmoid", "op": "Sigmoid", "input": ["PartitionedCall/model_21/tf.math.add_33/Add"], "attr": {"T": {"type": "DT_FLOAT"}}}, {"name": "PartitionedCall/model_21/tf.math.multiply_105/Mul", "op": "Mul", "input": ["PartitionedCall/model_21/tf.math.add_33/Add", "PartitionedCall/model_21/tf.math.sigmoid_23/Sigmoid"], "attr": {"T": {"type": "DT_FLOAT"}}}, {"name": "PartitionedCall/model_21/tf.math.add_35/Add", "op": "AddV2", "input": ["PartitionedCall/model_21/tf.strided_slice_7/StridedSlice", "PartitionedCall/model_21/tf.math.multiply_105/Mul"], "attr": {"T": {"type": "DT_FLOAT"}}}, {"name": "PartitionedCall/model_21/tf.concat_3/concat", "op": "ConcatV2", "input": ["PartitionedCall/model_21/tf.strided_slice_6/StridedSlice", "PartitionedCall/model_21/tf.strided_slice_7/StridedSlice", "PartitionedCall/model_21/tf.math.add_35/Add", "PartitionedCall/model_21/tf.concat_3/concat/axis"], "attr": {"N": {"i": "3"}, "T": {"type": "DT_FLOAT"}, "Tidx": {"type": "DT_INT32"}}}, {"name": "PartitionedCall/model_21/tf.math.add_36/Add", "op": "_FusedConv2D", "input": ["PartitionedCall/model_21/tf.concat_3/concat", "unknown_68", "unknown_69"], "device": "/device:CPU:0", "attr": {"num_host_args": {"i": "0"}, "data_format": {"s": "TkhXQw=="}, "filter_format": {"s": "SFdJTw=="}, "fused_ops": {"list": {"s": ["Qmlhc0FkZA=="]}}, "num_args": {"i": "1"}, "strides": {"list": {"i": ["1", "1", "1", "1"]}}, "TArgs": {"list": {"type": ["DT_FLOAT"]}}, "padding": {"s": "U0FNRQ=="}, "use_cudnn_on_gpu": {"b": true}, "leakyrelu_alpha": {"f": 0.2}, "epsilon": {"f": 0.0}, "T": {"type": "DT_FLOAT"}, "explicit_paddings": {"list": {}}, "dilations": {"list": {"i": ["1", "1", "1", "1"]}}}}, {"name": "PartitionedCall/model_21/tf.math.sigmoid_24/Sigmoid", "op": "Sigmoid", "input": ["PartitionedCall/model_21/tf.math.add_36/Add"], "attr": {"T": {"type": "DT_FLOAT"}}}, {"name": "PartitionedCall/model_21/tf.math.multiply_111/Mul", "op": "Mul", "input": ["PartitionedCall/model_21/tf.math.add_36/Add", "PartitionedCall/model_21/tf.math.sigmoid_24/Sigmoid"], "attr": {"T": {"type": "DT_FLOAT"}}}, {"name": "PartitionedCall/model_21/tf.math.add_37/Add", "op": "_FusedConv2D", "input": ["PartitionedCall/model_21/tf.math.multiply_111/Mul", "unknown_70", "unknown_71"], "device": "/device:CPU:0", "attr": {"num_host_args": {"i": "0"}, "data_format": {"s": "TkhXQw=="}, "filter_format": {"s": "SFdJTw=="}, "fused_ops": {"list": {"s": ["Qmlhc0FkZA=="]}}, "num_args": {"i": "1"}, "strides": {"list": {"i": ["1", "1", "1", "1"]}}, "TArgs": {"list": {"type": ["DT_FLOAT"]}}, "padding": {"s": "U0FNRQ=="}, "use_cudnn_on_gpu": {"b": true}, "leakyrelu_alpha": {"f": 0.2}, "epsilon": {"f": 0.0}, "T": {"type": "DT_FLOAT"}, "explicit_paddings": {"list": {}}, "dilations": {"list": {"i": ["1", "1", "1", "1"]}}}}, {"name": "PartitionedCall/model_21/tf.math.sigmoid_25/Sigmoid", "op": "Sigmoid", "input": ["PartitionedCall/model_21/tf.math.add_37/Add"], "attr": {"T": {"type": "DT_FLOAT"}}}, {"name": "PartitionedCall/model_21/tf.math.multiply_115/Mul", "op": "Mul", "input": ["PartitionedCall/model_21/tf.math.add_37/Add", "PartitionedCall/model_21/tf.math.sigmoid_25/Sigmoid"], "attr": {"T": {"type": "DT_FLOAT"}}}, {"name": "PartitionedCall/model_21/tf.compat.v1.nn.pool/max_pool", "op": "MaxPool", "input": ["PartitionedCall/model_21/tf.math.multiply_115/Mul"], "attr": {"padding": {"s": "U0FNRQ=="}, "data_format": {"s": "TkhXQw=="}, "T": {"type": "DT_FLOAT"}, "explicit_paddings": {"list": {}}, "ksize": {"list": {"i": ["1", "5", "5", "1"]}}, "strides": {"list": {"i": ["1", "1", "1", "1"]}}}}, {"name": "PartitionedCall/model_21/tf.compat.v1.nn.pool_1/max_pool", "op": "MaxPool", "input": ["PartitionedCall/model_21/tf.compat.v1.nn.pool/max_pool"], "attr": {"padding": {"s": "U0FNRQ=="}, "data_format": {"s": "TkhXQw=="}, "T": {"type": "DT_FLOAT"}, "explicit_paddings": {"list": {}}, "ksize": {"list": {"i": ["1", "5", "5", "1"]}}, "strides": {"list": {"i": ["1", "1", "1", "1"]}}}}, {"name": "PartitionedCall/model_21/tf.compat.v1.nn.pool_2/max_pool", "op": "MaxPool", "input": ["PartitionedCall/model_21/tf.compat.v1.nn.pool_1/max_pool"], "attr": {"padding": {"s": "U0FNRQ=="}, "data_format": {"s": "TkhXQw=="}, "T": {"type": "DT_FLOAT"}, "explicit_paddings": {"list": {}}, "ksize": {"list": {"i": ["1", "5", "5", "1"]}}, "strides": {"list": {"i": ["1", "1", "1", "1"]}}}}, {"name": "PartitionedCall/model_21/tf.concat_4/concat", "op": "ConcatV2", "input": ["PartitionedCall/model_21/tf.math.multiply_115/Mul", "PartitionedCall/model_21/tf.compat.v1.nn.pool/max_pool", "PartitionedCall/model_21/tf.compat.v1.nn.pool_1/max_pool", "PartitionedCall/model_21/tf.compat.v1.nn.pool_2/max_pool", "PartitionedCall/model_21/tf.concat_4/concat/axis"], "attr": {"N": {"i": "4"}, "Tidx": {"type": "DT_INT32"}, "T": {"type": "DT_FLOAT"}}}, {"name": "PartitionedCall/model_21/tf.math.add_38/Add", "op": "_FusedConv2D", "input": ["PartitionedCall/model_21/tf.concat_4/concat", "unknown_72", "unknown_73"], "device": "/device:CPU:0", "attr": {"num_host_args": {"i": "0"}, "data_format": {"s": "TkhXQw=="}, "filter_format": {"s": "SFdJTw=="}, "strides": {"list": {"i": ["1", "1", "1", "1"]}}, "num_args": {"i": "1"}, "fused_ops": {"list": {"s": ["Qmlhc0FkZA=="]}}, "TArgs": {"list": {"type": ["DT_FLOAT"]}}, "padding": {"s": "U0FNRQ=="}, "use_cudnn_on_gpu": {"b": true}, "leakyrelu_alpha": {"f": 0.2}, "epsilon": {"f": 0.0}, "T": {"type": "DT_FLOAT"}, "explicit_paddings": {"list": {}}, "dilations": {"list": {"i": ["1", "1", "1", "1"]}}}}, {"name": "PartitionedCall/model_21/tf.math.sigmoid_26/Sigmoid", "op": "Sigmoid", "input": ["PartitionedCall/model_21/tf.math.add_38/Add"], "attr": {"T": {"type": "DT_FLOAT"}}}, {"name": "PartitionedCall/model_21/tf.math.multiply_119/Mul", "op": "Mul", "input": ["PartitionedCall/model_21/tf.math.add_38/Add", "PartitionedCall/model_21/tf.math.sigmoid_26/Sigmoid"], "attr": {"T": {"type": "DT_FLOAT"}}}, {"name": "PartitionedCall/model_21/tf.image.resize/resize/ResizeNearestNeighbor", "op": "ResizeNearestNeighbor", "input": ["PartitionedCall/model_21/tf.math.multiply_119/Mul", "PartitionedCall/model_21/tf.image.resize/resize/size"], "attr": {"T": {"type": "DT_FLOAT"}, "align_corners": {"b": false}, "half_pixel_centers": {"b": true}}}, {"name": "PartitionedCall/model_21/tf.concat_5/concat", "op": "ConcatV2", "input": ["PartitionedCall/model_21/tf.image.resize/resize/ResizeNearestNeighbor", "PartitionedCall/model_21/tf.math.multiply_89/Mul", "PartitionedCall/model_21/tf.concat_5/concat/axis"], "attr": {"N": {"i": "2"}, "Tidx": {"type": "DT_INT32"}, "T": {"type": "DT_FLOAT"}}}, {"name": "PartitionedCall/model_21/tf.math.add_39/Add", "op": "_FusedConv2D", "input": ["PartitionedCall/model_21/tf.concat_5/concat", "unknown_74", "unknown_75"], "device": "/device:CPU:0", "attr": {"num_host_args": {"i": "0"}, "data_format": {"s": "TkhXQw=="}, "filter_format": {"s": "SFdJTw=="}, "fused_ops": {"list": {"s": ["Qmlhc0FkZA=="]}}, "num_args": {"i": "1"}, "strides": {"list": {"i": ["1", "1", "1", "1"]}}, "TArgs": {"list": {"type": ["DT_FLOAT"]}}, "padding": {"s": "U0FNRQ=="}, "use_cudnn_on_gpu": {"b": true}, "leakyrelu_alpha": {"f": 0.2}, "epsilon": {"f": 0.0}, "T": {"type": "DT_FLOAT"}, "explicit_paddings": {"list": {}}, "dilations": {"list": {"i": ["1", "1", "1", "1"]}}}}, {"name": "PartitionedCall/model_21/tf.math.sigmoid_27/Sigmoid", "op": "Sigmoid", "input": ["PartitionedCall/model_21/tf.math.add_39/Add"], "attr": {"T": {"type": "DT_FLOAT"}}}, {"name": "PartitionedCall/model_21/tf.math.multiply_123/Mul", "op": "Mul", "input": ["PartitionedCall/model_21/tf.math.add_39/Add", "PartitionedCall/model_21/tf.math.sigmoid_27/Sigmoid"], "attr": {"T": {"type": "DT_FLOAT"}}}, {"name": "PartitionedCall/model_21/tf.strided_slice_8/StridedSlice", "op": "StridedSlice", "input": ["PartitionedCall/model_21/tf.math.multiply_123/Mul", "unknown_82", "unknown_83", "PartitionedCall/model_21/tf.strided_slice_8/ones_like"], "attr": {"shrink_axis_mask": {"i": "0"}, "Index": {"type": "DT_INT64"}, "new_axis_mask": {"i": "0"}, "begin_mask": {"i": "15"}, "end_mask": {"i": "7"}, "T": {"type": "DT_FLOAT"}, "ellipsis_mask": {"i": "0"}}}, {"name": "PartitionedCall/model_21/tf.strided_slice_9/StridedSlice", "op": "StridedSlice", "input": ["PartitionedCall/model_21/tf.math.multiply_123/Mul", "unknown_76", "unknown_77", "PartitionedCall/model_21/tf.strided_slice_9/ones_like"], "attr": {"shrink_axis_mask": {"i": "0"}, "new_axis_mask": {"i": "0"}, "Index": {"type": "DT_INT64"}, "begin_mask": {"i": "7"}, "end_mask": {"i": "7"}, "T": {"type": "DT_FLOAT"}, "ellipsis_mask": {"i": "0"}}}, {"name": "PartitionedCall/model_21/tf.math.add_40/Add", "op": "_FusedConv2D", "input": ["PartitionedCall/model_21/tf.strided_slice_9/StridedSlice", "unknown_78", "unknown_79"], "device": "/device:CPU:0", "attr": {"num_host_args": {"i": "0"}, "data_format": {"s": "TkhXQw=="}, "filter_format": {"s": "SFdJTw=="}, "fused_ops": {"list": {"s": ["Qmlhc0FkZA=="]}}, "num_args": {"i": "1"}, "strides": {"list": {"i": ["1", "1", "1", "1"]}}, "TArgs": {"list": {"type": ["DT_FLOAT"]}}, "padding": {"s": "U0FNRQ=="}, "use_cudnn_on_gpu": {"b": true}, "leakyrelu_alpha": {"f": 0.2}, "epsilon": {"f": 0.0}, "T": {"type": "DT_FLOAT"}, "explicit_paddings": {"list": {}}, "dilations": {"list": {"i": ["1", "1", "1", "1"]}}}}, {"name": "PartitionedCall/model_21/tf.math.sigmoid_28/Sigmoid", "op": "Sigmoid", "input": ["PartitionedCall/model_21/tf.math.add_40/Add"], "attr": {"T": {"type": "DT_FLOAT"}}}, {"name": "PartitionedCall/model_21/tf.math.multiply_127/Mul", "op": "Mul", "input": ["PartitionedCall/model_21/tf.math.add_40/Add", "PartitionedCall/model_21/tf.math.sigmoid_28/Sigmoid"], "attr": {"T": {"type": "DT_FLOAT"}}}, {"name": "PartitionedCall/model_21/tf.math.add_41/Add", "op": "_FusedConv2D", "input": ["PartitionedCall/model_21/tf.math.multiply_127/Mul", "unknown_80", "unknown_81"], "device": "/device:CPU:0", "attr": {"num_host_args": {"i": "0"}, "data_format": {"s": "TkhXQw=="}, "filter_format": {"s": "SFdJTw=="}, "strides": {"list": {"i": ["1", "1", "1", "1"]}}, "num_args": {"i": "1"}, "fused_ops": {"list": {"s": ["Qmlhc0FkZA=="]}}, "TArgs": {"list": {"type": ["DT_FLOAT"]}}, "padding": {"s": "U0FNRQ=="}, "use_cudnn_on_gpu": {"b": true}, "leakyrelu_alpha": {"f": 0.2}, "epsilon": {"f": 0.0}, "T": {"type": "DT_FLOAT"}, "explicit_paddings": {"list": {}}, "dilations": {"list": {"i": ["1", "1", "1", "1"]}}}}, {"name": "PartitionedCall/model_21/tf.math.sigmoid_29/Sigmoid", "op": "Sigmoid", "input": ["PartitionedCall/model_21/tf.math.add_41/Add"], "attr": {"T": {"type": "DT_FLOAT"}}}, {"name": "PartitionedCall/model_21/tf.math.multiply_131/Mul", "op": "Mul", "input": ["PartitionedCall/model_21/tf.math.add_41/Add", "PartitionedCall/model_21/tf.math.sigmoid_29/Sigmoid"], "attr": {"T": {"type": "DT_FLOAT"}}}, {"name": "PartitionedCall/model_21/tf.concat_6/concat", "op": "ConcatV2", "input": ["PartitionedCall/model_21/tf.strided_slice_8/StridedSlice", "PartitionedCall/model_21/tf.strided_slice_9/StridedSlice", "PartitionedCall/model_21/tf.math.multiply_131/Mul", "PartitionedCall/model_21/tf.concat_6/concat/axis"], "attr": {"N": {"i": "3"}, "Tidx": {"type": "DT_INT32"}, "T": {"type": "DT_FLOAT"}}}, {"name": "PartitionedCall/model_21/tf.math.add_42/Add", "op": "_FusedConv2D", "input": ["PartitionedCall/model_21/tf.concat_6/concat", "unknown_84", "unknown_85"], "device": "/device:CPU:0", "attr": {"num_host_args": {"i": "0"}, "data_format": {"s": "TkhXQw=="}, "filter_format": {"s": "SFdJTw=="}, "strides": {"list": {"i": ["1", "1", "1", "1"]}}, "num_args": {"i": "1"}, "fused_ops": {"list": {"s": ["Qmlhc0FkZA=="]}}, "TArgs": {"list": {"type": ["DT_FLOAT"]}}, "padding": {"s": "U0FNRQ=="}, "use_cudnn_on_gpu": {"b": true}, "leakyrelu_alpha": {"f": 0.2}, "epsilon": {"f": 0.0}, "T": {"type": "DT_FLOAT"}, "explicit_paddings": {"list": {}}, "dilations": {"list": {"i": ["1", "1", "1", "1"]}}}}, {"name": "PartitionedCall/model_21/tf.math.sigmoid_30/Sigmoid", "op": "Sigmoid", "input": ["PartitionedCall/model_21/tf.math.add_42/Add"], "attr": {"T": {"type": "DT_FLOAT"}}}, {"name": "PartitionedCall/model_21/tf.math.multiply_135/Mul", "op": "Mul", "input": ["PartitionedCall/model_21/tf.math.add_42/Add", "PartitionedCall/model_21/tf.math.sigmoid_30/Sigmoid"], "attr": {"T": {"type": "DT_FLOAT"}}}, {"name": "PartitionedCall/model_21/tf.image.resize_1/resize/ResizeNearestNeighbor", "op": "ResizeNearestNeighbor", "input": ["PartitionedCall/model_21/tf.math.multiply_135/Mul", "PartitionedCall/model_21/tf.image.resize_1/resize/size"], "attr": {"T": {"type": "DT_FLOAT"}, "align_corners": {"b": false}, "half_pixel_centers": {"b": true}}}, {"name": "PartitionedCall/model_21/tf.concat_7/concat", "op": "ConcatV2", "input": ["PartitionedCall/model_21/tf.image.resize_1/resize/ResizeNearestNeighbor", "PartitionedCall/model_21/tf.math.multiply_57/Mul", "PartitionedCall/model_21/tf.concat_7/concat/axis"], "attr": {"N": {"i": "2"}, "T": {"type": "DT_FLOAT"}, "Tidx": {"type": "DT_INT32"}}}, {"name": "PartitionedCall/model_21/tf.math.add_43/Add", "op": "_FusedConv2D", "input": ["PartitionedCall/model_21/tf.concat_7/concat", "unknown_86", "unknown_87"], "device": "/device:CPU:0", "attr": {"num_host_args": {"i": "0"}, "data_format": {"s": "TkhXQw=="}, "filter_format": {"s": "SFdJTw=="}, "fused_ops": {"list": {"s": ["Qmlhc0FkZA=="]}}, "num_args": {"i": "1"}, "strides": {"list": {"i": ["1", "1", "1", "1"]}}, "TArgs": {"list": {"type": ["DT_FLOAT"]}}, "padding": {"s": "U0FNRQ=="}, "use_cudnn_on_gpu": {"b": true}, "leakyrelu_alpha": {"f": 0.2}, "epsilon": {"f": 0.0}, "T": {"type": "DT_FLOAT"}, "explicit_paddings": {"list": {}}, "dilations": {"list": {"i": ["1", "1", "1", "1"]}}}}, {"name": "PartitionedCall/model_21/tf.math.sigmoid_31/Sigmoid", "op": "Sigmoid", "input": ["PartitionedCall/model_21/tf.math.add_43/Add"], "attr": {"T": {"type": "DT_FLOAT"}}}, {"name": "PartitionedCall/model_21/tf.math.multiply_139/Mul", "op": "Mul", "input": ["PartitionedCall/model_21/tf.math.add_43/Add", "PartitionedCall/model_21/tf.math.sigmoid_31/Sigmoid"], "attr": {"T": {"type": "DT_FLOAT"}}}, {"name": "PartitionedCall/model_21/tf.strided_slice_10/StridedSlice", "op": "StridedSlice", "input": ["PartitionedCall/model_21/tf.math.multiply_139/Mul", "unknown_94", "unknown_95", "PartitionedCall/model_21/tf.strided_slice_10/ones_like"], "attr": {"shrink_axis_mask": {"i": "0"}, "Index": {"type": "DT_INT64"}, "new_axis_mask": {"i": "0"}, "begin_mask": {"i": "15"}, "T": {"type": "DT_FLOAT"}, "end_mask": {"i": "7"}, "ellipsis_mask": {"i": "0"}}}, {"name": "PartitionedCall/model_21/tf.strided_slice_11/StridedSlice", "op": "StridedSlice", "input": ["PartitionedCall/model_21/tf.math.multiply_139/Mul", "unknown_88", "unknown_89", "PartitionedCall/model_21/tf.strided_slice_11/ones_like"], "attr": {"shrink_axis_mask": {"i": "0"}, "Index": {"type": "DT_INT64"}, "new_axis_mask": {"i": "0"}, "begin_mask": {"i": "7"}, "T": {"type": "DT_FLOAT"}, "end_mask": {"i": "7"}, "ellipsis_mask": {"i": "0"}}}, {"name": "PartitionedCall/model_21/tf.math.add_44/Add", "op": "_FusedConv2D", "input": ["PartitionedCall/model_21/tf.strided_slice_11/StridedSlice", "unknown_90", "unknown_91"], "device": "/device:CPU:0", "attr": {"num_host_args": {"i": "0"}, "data_format": {"s": "TkhXQw=="}, "filter_format": {"s": "SFdJTw=="}, "fused_ops": {"list": {"s": ["Qmlhc0FkZA=="]}}, "num_args": {"i": "1"}, "strides": {"list": {"i": ["1", "1", "1", "1"]}}, "TArgs": {"list": {"type": ["DT_FLOAT"]}}, "padding": {"s": "U0FNRQ=="}, "use_cudnn_on_gpu": {"b": true}, "leakyrelu_alpha": {"f": 0.2}, "epsilon": {"f": 0.0}, "T": {"type": "DT_FLOAT"}, "explicit_paddings": {"list": {}}, "dilations": {"list": {"i": ["1", "1", "1", "1"]}}}}, {"name": "PartitionedCall/model_21/tf.math.sigmoid_32/Sigmoid", "op": "Sigmoid", "input": ["PartitionedCall/model_21/tf.math.add_44/Add"], "attr": {"T": {"type": "DT_FLOAT"}}}, {"name": "PartitionedCall/model_21/tf.math.multiply_143/Mul", "op": "Mul", "input": ["PartitionedCall/model_21/tf.math.add_44/Add", "PartitionedCall/model_21/tf.math.sigmoid_32/Sigmoid"], "attr": {"T": {"type": "DT_FLOAT"}}}, {"name": "PartitionedCall/model_21/tf.math.add_45/Add", "op": "_FusedConv2D", "input": ["PartitionedCall/model_21/tf.math.multiply_143/Mul", "unknown_92", "unknown_93"], "device": "/device:CPU:0", "attr": {"num_host_args": {"i": "0"}, "data_format": {"s": "TkhXQw=="}, "filter_format": {"s": "SFdJTw=="}, "strides": {"list": {"i": ["1", "1", "1", "1"]}}, "num_args": {"i": "1"}, "fused_ops": {"list": {"s": ["Qmlhc0FkZA=="]}}, "TArgs": {"list": {"type": ["DT_FLOAT"]}}, "padding": {"s": "U0FNRQ=="}, "use_cudnn_on_gpu": {"b": true}, "leakyrelu_alpha": {"f": 0.2}, "epsilon": {"f": 0.0}, "T": {"type": "DT_FLOAT"}, "explicit_paddings": {"list": {}}, "dilations": {"list": {"i": ["1", "1", "1", "1"]}}}}, {"name": "PartitionedCall/model_21/tf.math.sigmoid_33/Sigmoid", "op": "Sigmoid", "input": ["PartitionedCall/model_21/tf.math.add_45/Add"], "attr": {"T": {"type": "DT_FLOAT"}}}, {"name": "PartitionedCall/model_21/tf.math.multiply_147/Mul", "op": "Mul", "input": ["PartitionedCall/model_21/tf.math.add_45/Add", "PartitionedCall/model_21/tf.math.sigmoid_33/Sigmoid"], "attr": {"T": {"type": "DT_FLOAT"}}}, {"name": "PartitionedCall/model_21/tf.concat_8/concat", "op": "ConcatV2", "input": ["PartitionedCall/model_21/tf.strided_slice_10/StridedSlice", "PartitionedCall/model_21/tf.strided_slice_11/StridedSlice", "PartitionedCall/model_21/tf.math.multiply_147/Mul", "PartitionedCall/model_21/tf.concat_8/concat/axis"], "attr": {"N": {"i": "3"}, "T": {"type": "DT_FLOAT"}, "Tidx": {"type": "DT_INT32"}}}, {"name": "PartitionedCall/model_21/tf.math.add_46/Add", "op": "_FusedConv2D", "input": ["PartitionedCall/model_21/tf.concat_8/concat", "unknown_96", "unknown_97"], "device": "/device:CPU:0", "attr": {"num_host_args": {"i": "0"}, "data_format": {"s": "TkhXQw=="}, "filter_format": {"s": "SFdJTw=="}, "strides": {"list": {"i": ["1", "1", "1", "1"]}}, "num_args": {"i": "1"}, "fused_ops": {"list": {"s": ["Qmlhc0FkZA=="]}}, "TArgs": {"list": {"type": ["DT_FLOAT"]}}, "padding": {"s": "U0FNRQ=="}, "use_cudnn_on_gpu": {"b": true}, "leakyrelu_alpha": {"f": 0.2}, "epsilon": {"f": 0.0}, "T": {"type": "DT_FLOAT"}, "explicit_paddings": {"list": {}}, "dilations": {"list": {"i": ["1", "1", "1", "1"]}}}}, {"name": "PartitionedCall/model_21/tf.math.sigmoid_34/Sigmoid", "op": "Sigmoid", "input": ["PartitionedCall/model_21/tf.math.add_46/Add"], "attr": {"T": {"type": "DT_FLOAT"}}}, {"name": "PartitionedCall/model_21/tf.math.multiply_151/Mul", "op": "Mul", "input": ["PartitionedCall/model_21/tf.math.add_46/Add", "PartitionedCall/model_21/tf.math.sigmoid_34/Sigmoid"], "attr": {"T": {"type": "DT_FLOAT"}}}, {"name": "PartitionedCall/model_21/tf.math.add_48/Add", "op": "_FusedConv2D", "input": ["PartitionedCall/model_21/tf.math.multiply_151/Mul", "unknown_134", "unknown_139"], "device": "/device:CPU:0", "attr": {"num_host_args": {"i": "0"}, "data_format": {"s": "TkhXQw=="}, "filter_format": {"s": "SFdJTw=="}, "strides": {"list": {"i": ["1", "1", "1", "1"]}}, "num_args": {"i": "1"}, "fused_ops": {"list": {"s": ["Qmlhc0FkZA=="]}}, "TArgs": {"list": {"type": ["DT_FLOAT"]}}, "padding": {"s": "U0FNRQ=="}, "use_cudnn_on_gpu": {"b": true}, "leakyrelu_alpha": {"f": 0.2}, "epsilon": {"f": 0.0}, "T": {"type": "DT_FLOAT"}, "explicit_paddings": {"list": {}}, "dilations": {"list": {"i": ["1", "1", "1", "1"]}}}}, {"name": "PartitionedCall/model_21/tf.math.add_49/Add", "op": "_FusedConv2D", "input": ["PartitionedCall/model_21/tf.math.multiply_151/Mul", "unknown_127", "unknown_129"], "device": "/device:CPU:0", "attr": {"num_host_args": {"i": "0"}, "data_format": {"s": "TkhXQw=="}, "filter_format": {"s": "SFdJTw=="}, "strides": {"list": {"i": ["1", "1", "1", "1"]}}, "num_args": {"i": "1"}, "fused_ops": {"list": {"s": ["Qmlhc0FkZA=="]}}, "TArgs": {"list": {"type": ["DT_FLOAT"]}}, "padding": {"s": "U0FNRQ=="}, "use_cudnn_on_gpu": {"b": true}, "leakyrelu_alpha": {"f": 0.2}, "epsilon": {"f": 0.0}, "T": {"type": "DT_FLOAT"}, "explicit_paddings": {"list": {}}, "dilations": {"list": {"i": ["1", "1", "1", "1"]}}}}, {"name": "PartitionedCall/model_21/tf.compat.v1.pad_5/Pad", "op": "Pad", "input": ["PartitionedCall/model_21/tf.math.multiply_151/Mul", "unknown_98"], "attr": {"Tpaddings": {"type": "DT_INT32"}, "T": {"type": "DT_FLOAT"}}}, {"name": "PartitionedCall/model_21/tf.math.sigmoid_36/Sigmoid", "op": "Sigmoid", "input": ["PartitionedCall/model_21/tf.math.add_48/Add"], "attr": {"T": {"type": "DT_FLOAT"}}}, {"name": "PartitionedCall/model_21/tf.math.sigmoid_37/Sigmoid", "op": "Sigmoid", "input": ["PartitionedCall/model_21/tf.math.add_49/Add"], "attr": {"T": {"type": "DT_FLOAT"}}}, {"name": "PartitionedCall/model_21/tf.math.add_47/Add", "op": "_FusedConv2D", "input": ["PartitionedCall/model_21/tf.compat.v1.pad_5/Pad", "unknown_99", "unknown_100"], "device": "/device:CPU:0", "attr": {"num_host_args": {"i": "0"}, "data_format": {"s": "TkhXQw=="}, "filter_format": {"s": "SFdJTw=="}, "fused_ops": {"list": {"s": ["Qmlhc0FkZA=="]}}, "num_args": {"i": "1"}, "strides": {"list": {"i": ["1", "2", "2", "1"]}}, "TArgs": {"list": {"type": ["DT_FLOAT"]}}, "padding": {"s": "VkFMSUQ="}, "use_cudnn_on_gpu": {"b": true}, "leakyrelu_alpha": {"f": 0.2}, "epsilon": {"f": 0.0}, "T": {"type": "DT_FLOAT"}, "explicit_paddings": {"list": {}}, "dilations": {"list": {"i": ["1", "1", "1", "1"]}}}}, {"name": "PartitionedCall/model_21/tf.math.multiply_159/Mul", "op": "Mul", "input": ["PartitionedCall/model_21/tf.math.add_48/Add", "PartitionedCall/model_21/tf.math.sigmoid_36/Sigmoid"], "attr": {"T": {"type": "DT_FLOAT"}}}, {"name": "PartitionedCall/model_21/tf.math.multiply_163/Mul", "op": "Mul", "input": ["PartitionedCall/model_21/tf.math.add_49/Add", "PartitionedCall/model_21/tf.math.sigmoid_37/Sigmoid"], "attr": {"T": {"type": "DT_FLOAT"}}}, {"name": "PartitionedCall/model_21/tf.math.sigmoid_35/Sigmoid", "op": "Sigmoid", "input": ["PartitionedCall/model_21/tf.math.add_47/Add"], "attr": {"T": {"type": "DT_FLOAT"}}}, {"name": "PartitionedCall/model_21/tf.math.add_50/Add", "op": "_FusedConv2D", "input": ["PartitionedCall/model_21/tf.math.multiply_159/Mul", "unknown_146", "unknown_151"], "device": "/device:CPU:0", "attr": {"num_host_args": {"i": "0"}, "data_format": {"s": "TkhXQw=="}, "filter_format": {"s": "SFdJTw=="}, "strides": {"list": {"i": ["1", "1", "1", "1"]}}, "num_args": {"i": "1"}, "fused_ops": {"list": {"s": ["Qmlhc0FkZA=="]}}, "TArgs": {"list": {"type": ["DT_FLOAT"]}}, "padding": {"s": "U0FNRQ=="}, "use_cudnn_on_gpu": {"b": true}, "leakyrelu_alpha": {"f": 0.2}, "epsilon": {"f": 0.0}, "T": {"type": "DT_FLOAT"}, "explicit_paddings": {"list": {}}, "dilations": {"list": {"i": ["1", "1", "1", "1"]}}}}, {"name": "PartitionedCall/model_21/tf.math.add_53/Add", "op": "_FusedConv2D", "input": ["PartitionedCall/model_21/tf.math.multiply_163/Mul", "unknown_140", "unknown_141"], "device": "/device:CPU:0", "attr": {"num_host_args": {"i": "0"}, "data_format": {"s": "TkhXQw=="}, "filter_format": {"s": "SFdJTw=="}, "fused_ops": {"list": {"s": ["Qmlhc0FkZA=="]}}, "num_args": {"i": "1"}, "strides": {"list": {"i": ["1", "1", "1", "1"]}}, "TArgs": {"list": {"type": ["DT_FLOAT"]}}, "padding": {"s": "U0FNRQ=="}, "use_cudnn_on_gpu": {"b": true}, "leakyrelu_alpha": {"f": 0.2}, "epsilon": {"f": 0.0}, "T": {"type": "DT_FLOAT"}, "explicit_paddings": {"list": {}}, "dilations": {"list": {"i": ["1", "1", "1", "1"]}}}}, {"name": "PartitionedCall/model_21/tf.math.multiply_155/Mul", "op": "Mul", "input": ["PartitionedCall/model_21/tf.math.add_47/Add", "PartitionedCall/model_21/tf.math.sigmoid_35/Sigmoid"], "attr": {"T": {"type": "DT_FLOAT"}}}, {"name": "PartitionedCall/model_21/tf.math.sigmoid_38/Sigmoid", "op": "Sigmoid", "input": ["PartitionedCall/model_21/tf.math.add_50/Add"], "attr": {"T": {"type": "DT_FLOAT"}}}, {"name": "PartitionedCall/model_21/tf.math.sigmoid_39/Sigmoid", "op": "Sigmoid", "input": ["PartitionedCall/model_21/tf.math.add_53/Add"], "attr": {"T": {"type": "DT_FLOAT"}}}, {"name": "PartitionedCall/model_21/tf.concat_9/concat", "op": "ConcatV2", "input": ["PartitionedCall/model_21/tf.math.multiply_155/Mul", "PartitionedCall/model_21/tf.math.multiply_135/Mul", "PartitionedCall/model_21/tf.concat_9/concat/axis"], "attr": {"N": {"i": "2"}, "Tidx": {"type": "DT_INT32"}, "T": {"type": "DT_FLOAT"}}}, {"name": "PartitionedCall/model_21/tf.math.multiply_167/Mul", "op": "Mul", "input": ["PartitionedCall/model_21/tf.math.add_50/Add", "PartitionedCall/model_21/tf.math.sigmoid_38/Sigmoid"], "attr": {"T": {"type": "DT_FLOAT"}}}, {"name": "PartitionedCall/model_21/tf.math.multiply_171/Mul", "op": "Mul", "input": ["PartitionedCall/model_21/tf.math.add_53/Add", "PartitionedCall/model_21/tf.math.sigmoid_39/Sigmoid"], "attr": {"T": {"type": "DT_FLOAT"}}}, {"name": "PartitionedCall/model_21/tf.math.add_54/Add", "op": "_FusedConv2D", "input": ["PartitionedCall/model_21/tf.concat_9/concat", "unknown_101", "unknown_102"], "device": "/device:CPU:0", "attr": {"num_host_args": {"i": "0"}, "data_format": {"s": "TkhXQw=="}, "filter_format": {"s": "SFdJTw=="}, "fused_ops": {"list": {"s": ["Qmlhc0FkZA=="]}}, "num_args": {"i": "1"}, "strides": {"list": {"i": ["1", "1", "1", "1"]}}, "TArgs": {"list": {"type": ["DT_FLOAT"]}}, "padding": {"s": "U0FNRQ=="}, "use_cudnn_on_gpu": {"b": true}, "leakyrelu_alpha": {"f": 0.2}, "epsilon": {"f": 0.0}, "T": {"type": "DT_FLOAT"}, "explicit_paddings": {"list": {}}, "dilations": {"list": {"i": ["1", "1", "1", "1"]}}}}, {"name": "PartitionedCall/model_21/tf.math.add_55/Add", "op": "_FusedConv2D", "input": ["PartitionedCall/model_21/tf.math.multiply_167/Mul", "unknown_157", "unknown_162"], "device": "/device:CPU:0", "attr": {"num_host_args": {"i": "0"}, "data_format": {"s": "TkhXQw=="}, "filter_format": {"s": "SFdJTw=="}, "fused_ops": {"list": {"s": ["Qmlhc0FkZA=="]}}, "num_args": {"i": "1"}, "strides": {"list": {"i": ["1", "1", "1", "1"]}}, "TArgs": {"list": {"type": ["DT_FLOAT"]}}, "padding": {"s": "U0FNRQ=="}, "use_cudnn_on_gpu": {"b": true}, "leakyrelu_alpha": {"f": 0.2}, "epsilon": {"f": 0.0}, "T": {"type": "DT_FLOAT"}, "explicit_paddings": {"list": {}}, "dilations": {"list": {"i": ["1", "1", "1", "1"]}}}}, {"name": "PartitionedCall/model_21/tf.math.add_58/Add", "op": "_FusedConv2D", "input": ["PartitionedCall/model_21/tf.math.multiply_171/Mul", "unknown_156", "unknown_163"], "device": "/device:CPU:0", "attr": {"num_host_args": {"i": "0"}, "data_format": {"s": "TkhXQw=="}, "filter_format": {"s": "SFdJTw=="}, "strides": {"list": {"i": ["1", "1", "1", "1"]}}, "num_args": {"i": "1"}, "fused_ops": {"list": {"s": ["Qmlhc0FkZA=="]}}, "TArgs": {"list": {"type": ["DT_FLOAT"]}}, "padding": {"s": "U0FNRQ=="}, "use_cudnn_on_gpu": {"b": true}, "leakyrelu_alpha": {"f": 0.2}, "epsilon": {"f": 0.0}, "T": {"type": "DT_FLOAT"}, "explicit_paddings": {"list": {}}, "dilations": {"list": {"i": ["1", "1", "1", "1"]}}}}, {"name": "PartitionedCall/model_21/tf.math.sigmoid_40/Sigmoid", "op": "Sigmoid", "input": ["PartitionedCall/model_21/tf.math.add_54/Add"], "attr": {"T": {"type": "DT_FLOAT"}}}, {"name": "PartitionedCall/model_21/tf.concat_12/concat", "op": "ConcatV2", "input": ["PartitionedCall/model_21/tf.math.add_55/Add", "PartitionedCall/model_21/tf.math.add_58/Add", "PartitionedCall/model_21/tf.concat_12/concat/axis"], "attr": {"N": {"i": "2"}, "T": {"type": "DT_FLOAT"}, "Tidx": {"type": "DT_INT32"}}}, {"name": "PartitionedCall/model_21/tf.math.multiply_175/Mul", "op": "Mul", "input": ["PartitionedCall/model_21/tf.math.add_54/Add", "PartitionedCall/model_21/tf.math.sigmoid_40/Sigmoid"], "attr": {"T": {"type": "DT_FLOAT"}}}, {"name": "PartitionedCall/model_21/tf.compat.v1.transpose_55/transpose", "op": "Transpose", "input": ["PartitionedCall/model_21/tf.concat_12/concat", "PartitionedCall/model_21/tf.compat.v1.transpose_55/transpose/perm"], "attr": {"Tperm": {"type": "DT_INT32"}, "T": {"type": "DT_FLOAT"}}}, {"name": "PartitionedCall/model_21/tf.strided_slice_12/StridedSlice", "op": "StridedSlice", "input": ["PartitionedCall/model_21/tf.math.multiply_175/Mul", "unknown_109", "unknown_110", "PartitionedCall/model_21/tf.strided_slice_12/ones_like"], "attr": {"shrink_axis_mask": {"i": "0"}, "new_axis_mask": {"i": "0"}, "Index": {"type": "DT_INT64"}, "begin_mask": {"i": "15"}, "end_mask": {"i": "7"}, "T": {"type": "DT_FLOAT"}, "ellipsis_mask": {"i": "0"}}}, {"name": "PartitionedCall/model_21/tf.strided_slice_13/StridedSlice", "op": "StridedSlice", "input": ["PartitionedCall/model_21/tf.math.multiply_175/Mul", "unknown_103", "unknown_104", "PartitionedCall/model_21/tf.strided_slice_13/ones_like"], "attr": {"shrink_axis_mask": {"i": "0"}, "new_axis_mask": {"i": "0"}, "Index": {"type": "DT_INT64"}, "begin_mask": {"i": "7"}, "T": {"type": "DT_FLOAT"}, "end_mask": {"i": "7"}, "ellipsis_mask": {"i": "0"}}}, {"name": "PartitionedCall/model_21/tf.reshape_2/Reshape", "op": "Reshape", "input": ["PartitionedCall/model_21/tf.compat.v1.transpose_55/transpose", "PartitionedCall/model_21/tf.reshape_2/Reshape/shape"], "attr": {"T": {"type": "DT_FLOAT"}, "Tshape": {"type": "DT_INT32"}}}, {"name": "PartitionedCall/model_21/tf.math.add_59/Add", "op": "_FusedConv2D", "input": ["PartitionedCall/model_21/tf.strided_slice_13/StridedSlice", "unknown_105", "unknown_106"], "device": "/device:CPU:0", "attr": {"num_host_args": {"i": "0"}, "data_format": {"s": "TkhXQw=="}, "filter_format": {"s": "SFdJTw=="}, "fused_ops": {"list": {"s": ["Qmlhc0FkZA=="]}}, "num_args": {"i": "1"}, "strides": {"list": {"i": ["1", "1", "1", "1"]}}, "TArgs": {"list": {"type": ["DT_FLOAT"]}}, "padding": {"s": "U0FNRQ=="}, "use_cudnn_on_gpu": {"b": true}, "leakyrelu_alpha": {"f": 0.2}, "epsilon": {"f": 0.0}, "T": {"type": "DT_FLOAT"}, "explicit_paddings": {"list": {}}, "dilations": {"list": {"i": ["1", "1", "1", "1"]}}}}, {"name": "PartitionedCall/model_21/tf.math.sigmoid_41/Sigmoid", "op": "Sigmoid", "input": ["PartitionedCall/model_21/tf.math.add_59/Add"], "attr": {"T": {"type": "DT_FLOAT"}}}, {"name": "PartitionedCall/model_21/tf.math.multiply_179/Mul", "op": "Mul", "input": ["PartitionedCall/model_21/tf.math.add_59/Add", "PartitionedCall/model_21/tf.math.sigmoid_41/Sigmoid"], "attr": {"T": {"type": "DT_FLOAT"}}}, {"name": "PartitionedCall/model_21/tf.math.add_60/Add", "op": "_FusedConv2D", "input": ["PartitionedCall/model_21/tf.math.multiply_179/Mul", "unknown_107", "unknown_108"], "device": "/device:CPU:0", "attr": {"num_host_args": {"i": "0"}, "data_format": {"s": "TkhXQw=="}, "filter_format": {"s": "SFdJTw=="}, "strides": {"list": {"i": ["1", "1", "1", "1"]}}, "num_args": {"i": "1"}, "fused_ops": {"list": {"s": ["Qmlhc0FkZA=="]}}, "TArgs": {"list": {"type": ["DT_FLOAT"]}}, "padding": {"s": "U0FNRQ=="}, "use_cudnn_on_gpu": {"b": true}, "leakyrelu_alpha": {"f": 0.2}, "epsilon": {"f": 0.0}, "T": {"type": "DT_FLOAT"}, "explicit_paddings": {"list": {}}, "dilations": {"list": {"i": ["1", "1", "1", "1"]}}}}, {"name": "PartitionedCall/model_21/tf.math.sigmoid_42/Sigmoid", "op": "Sigmoid", "input": ["PartitionedCall/model_21/tf.math.add_60/Add"], "attr": {"T": {"type": "DT_FLOAT"}}}, {"name": "PartitionedCall/model_21/tf.math.multiply_183/Mul", "op": "Mul", "input": ["PartitionedCall/model_21/tf.math.add_60/Add", "PartitionedCall/model_21/tf.math.sigmoid_42/Sigmoid"], "attr": {"T": {"type": "DT_FLOAT"}}}, {"name": "PartitionedCall/model_21/tf.concat_13/concat", "op": "ConcatV2", "input": ["PartitionedCall/model_21/tf.strided_slice_12/StridedSlice", "PartitionedCall/model_21/tf.strided_slice_13/StridedSlice", "PartitionedCall/model_21/tf.math.multiply_183/Mul", "PartitionedCall/model_21/tf.concat_13/concat/axis"], "attr": {"N": {"i": "3"}, "T": {"type": "DT_FLOAT"}, "Tidx": {"type": "DT_INT32"}}}, {"name": "PartitionedCall/model_21/tf.math.add_61/Add", "op": "_FusedConv2D", "input": ["PartitionedCall/model_21/tf.concat_13/concat", "unknown_111", "unknown_112"], "device": "/device:CPU:0", "attr": {"num_host_args": {"i": "0"}, "data_format": {"s": "TkhXQw=="}, "filter_format": {"s": "SFdJTw=="}, "fused_ops": {"list": {"s": ["Qmlhc0FkZA=="]}}, "num_args": {"i": "1"}, "strides": {"list": {"i": ["1", "1", "1", "1"]}}, "TArgs": {"list": {"type": ["DT_FLOAT"]}}, "padding": {"s": "U0FNRQ=="}, "use_cudnn_on_gpu": {"b": true}, "leakyrelu_alpha": {"f": 0.2}, "epsilon": {"f": 0.0}, "T": {"type": "DT_FLOAT"}, "explicit_paddings": {"list": {}}, "dilations": {"list": {"i": ["1", "1", "1", "1"]}}}}, {"name": "PartitionedCall/model_21/tf.math.sigmoid_43/Sigmoid", "op": "Sigmoid", "input": ["PartitionedCall/model_21/tf.math.add_61/Add"], "attr": {"T": {"type": "DT_FLOAT"}}}, {"name": "PartitionedCall/model_21/tf.math.multiply_187/Mul", "op": "Mul", "input": ["PartitionedCall/model_21/tf.math.add_61/Add", "PartitionedCall/model_21/tf.math.sigmoid_43/Sigmoid"], "attr": {"T": {"type": "DT_FLOAT"}}}, {"name": "PartitionedCall/model_21/tf.math.add_63/Add", "op": "_FusedConv2D", "input": ["PartitionedCall/model_21/tf.math.multiply_187/Mul", "unknown_133", "unknown_138"], "device": "/device:CPU:0", "attr": {"num_host_args": {"i": "0"}, "data_format": {"s": "TkhXQw=="}, "filter_format": {"s": "SFdJTw=="}, "strides": {"list": {"i": ["1", "1", "1", "1"]}}, "num_args": {"i": "1"}, "fused_ops": {"list": {"s": ["Qmlhc0FkZA=="]}}, "TArgs": {"list": {"type": ["DT_FLOAT"]}}, "padding": {"s": "U0FNRQ=="}, "use_cudnn_on_gpu": {"b": true}, "leakyrelu_alpha": {"f": 0.2}, "epsilon": {"f": 0.0}, "T": {"type": "DT_FLOAT"}, "explicit_paddings": {"list": {}}, "dilations": {"list": {"i": ["1", "1", "1", "1"]}}}}, {"name": "PartitionedCall/model_21/tf.math.add_64/Add", "op": "_FusedConv2D", "input": ["PartitionedCall/model_21/tf.math.multiply_187/Mul", "unknown_132", "unknown_137"], "device": "/device:CPU:0", "attr": {"num_host_args": {"i": "0"}, "data_format": {"s": "TkhXQw=="}, "filter_format": {"s": "SFdJTw=="}, "fused_ops": {"list": {"s": ["Qmlhc0FkZA=="]}}, "num_args": {"i": "1"}, "strides": {"list": {"i": ["1", "1", "1", "1"]}}, "TArgs": {"list": {"type": ["DT_FLOAT"]}}, "padding": {"s": "U0FNRQ=="}, "use_cudnn_on_gpu": {"b": true}, "leakyrelu_alpha": {"f": 0.2}, "epsilon": {"f": 0.0}, "T": {"type": "DT_FLOAT"}, "explicit_paddings": {"list": {}}, "dilations": {"list": {"i": ["1", "1", "1", "1"]}}}}, {"name": "PartitionedCall/model_21/tf.compat.v1.pad_6/Pad", "op": "Pad", "input": ["PartitionedCall/model_21/tf.math.multiply_187/Mul", "unknown_113"], "attr": {"Tpaddings": {"type": "DT_INT32"}, "T": {"type": "DT_FLOAT"}}}, {"name": "PartitionedCall/model_21/tf.math.sigmoid_45/Sigmoid", "op": "Sigmoid", "input": ["PartitionedCall/model_21/tf.math.add_63/Add"], "attr": {"T": {"type": "DT_FLOAT"}}}, {"name": "PartitionedCall/model_21/tf.math.sigmoid_46/Sigmoid", "op": "Sigmoid", "input": ["PartitionedCall/model_21/tf.math.add_64/Add"], "attr": {"T": {"type": "DT_FLOAT"}}}, {"name": "PartitionedCall/model_21/tf.math.add_62/Add", "op": "_FusedConv2D", "input": ["PartitionedCall/model_21/tf.compat.v1.pad_6/Pad", "unknown_114", "unknown_115"], "device": "/device:CPU:0", "attr": {"num_host_args": {"i": "0"}, "data_format": {"s": "TkhXQw=="}, "filter_format": {"s": "SFdJTw=="}, "fused_ops": {"list": {"s": ["Qmlhc0FkZA=="]}}, "num_args": {"i": "1"}, "strides": {"list": {"i": ["1", "2", "2", "1"]}}, "TArgs": {"list": {"type": ["DT_FLOAT"]}}, "padding": {"s": "VkFMSUQ="}, "use_cudnn_on_gpu": {"b": true}, "leakyrelu_alpha": {"f": 0.2}, "epsilon": {"f": 0.0}, "T": {"type": "DT_FLOAT"}, "explicit_paddings": {"list": {}}, "dilations": {"list": {"i": ["1", "1", "1", "1"]}}}}, {"name": "PartitionedCall/model_21/tf.math.multiply_195/Mul", "op": "Mul", "input": ["PartitionedCall/model_21/tf.math.add_63/Add", "PartitionedCall/model_21/tf.math.sigmoid_45/Sigmoid"], "attr": {"T": {"type": "DT_FLOAT"}}}, {"name": "PartitionedCall/model_21/tf.math.multiply_199/Mul", "op": "Mul", "input": ["PartitionedCall/model_21/tf.math.add_64/Add", "PartitionedCall/model_21/tf.math.sigmoid_46/Sigmoid"], "attr": {"T": {"type": "DT_FLOAT"}}}, {"name": "PartitionedCall/model_21/tf.math.sigmoid_44/Sigmoid", "op": "Sigmoid", "input": ["PartitionedCall/model_21/tf.math.add_62/Add"], "attr": {"T": {"type": "DT_FLOAT"}}}, {"name": "PartitionedCall/model_21/tf.math.add_65/Add", "op": "_FusedConv2D", "input": ["PartitionedCall/model_21/tf.math.multiply_195/Mul", "unknown_145", "unknown_150"], "device": "/device:CPU:0", "attr": {"num_host_args": {"i": "0"}, "data_format": {"s": "TkhXQw=="}, "filter_format": {"s": "SFdJTw=="}, "fused_ops": {"list": {"s": ["Qmlhc0FkZA=="]}}, "num_args": {"i": "1"}, "strides": {"list": {"i": ["1", "1", "1", "1"]}}, "TArgs": {"list": {"type": ["DT_FLOAT"]}}, "padding": {"s": "U0FNRQ=="}, "use_cudnn_on_gpu": {"b": true}, "leakyrelu_alpha": {"f": 0.2}, "epsilon": {"f": 0.0}, "T": {"type": "DT_FLOAT"}, "explicit_paddings": {"list": {}}, "dilations": {"list": {"i": ["1", "1", "1", "1"]}}}}, {"name": "PartitionedCall/model_21/tf.math.add_66/Add", "op": "_FusedConv2D", "input": ["PartitionedCall/model_21/tf.math.multiply_199/Mul", "unknown_144", "unknown_149"], "device": "/device:CPU:0", "attr": {"num_host_args": {"i": "0"}, "data_format": {"s": "TkhXQw=="}, "filter_format": {"s": "SFdJTw=="}, "fused_ops": {"list": {"s": ["Qmlhc0FkZA=="]}}, "num_args": {"i": "1"}, "strides": {"list": {"i": ["1", "1", "1", "1"]}}, "TArgs": {"list": {"type": ["DT_FLOAT"]}}, "padding": {"s": "U0FNRQ=="}, "use_cudnn_on_gpu": {"b": true}, "leakyrelu_alpha": {"f": 0.2}, "epsilon": {"f": 0.0}, "T": {"type": "DT_FLOAT"}, "explicit_paddings": {"list": {}}, "dilations": {"list": {"i": ["1", "1", "1", "1"]}}}}, {"name": "PartitionedCall/model_21/tf.math.multiply_191/Mul", "op": "Mul", "input": ["PartitionedCall/model_21/tf.math.add_62/Add", "PartitionedCall/model_21/tf.math.sigmoid_44/Sigmoid"], "attr": {"T": {"type": "DT_FLOAT"}}}, {"name": "PartitionedCall/model_21/tf.math.sigmoid_47/Sigmoid", "op": "Sigmoid", "input": ["PartitionedCall/model_21/tf.math.add_65/Add"], "attr": {"T": {"type": "DT_FLOAT"}}}, {"name": "PartitionedCall/model_21/tf.math.sigmoid_48/Sigmoid", "op": "Sigmoid", "input": ["PartitionedCall/model_21/tf.math.add_66/Add"], "attr": {"T": {"type": "DT_FLOAT"}}}, {"name": "PartitionedCall/model_21/tf.concat_14/concat", "op": "ConcatV2", "input": ["PartitionedCall/model_21/tf.math.multiply_191/Mul", "PartitionedCall/model_21/tf.math.multiply_119/Mul", "PartitionedCall/model_21/tf.concat_14/concat/axis"], "attr": {"N": {"i": "2"}, "T": {"type": "DT_FLOAT"}, "Tidx": {"type": "DT_INT32"}}}, {"name": "PartitionedCall/model_21/tf.math.multiply_203/Mul", "op": "Mul", "input": ["PartitionedCall/model_21/tf.math.add_65/Add", "PartitionedCall/model_21/tf.math.sigmoid_47/Sigmoid"], "attr": {"T": {"type": "DT_FLOAT"}}}, {"name": "PartitionedCall/model_21/tf.math.multiply_207/Mul", "op": "Mul", "input": ["PartitionedCall/model_21/tf.math.add_66/Add", "PartitionedCall/model_21/tf.math.sigmoid_48/Sigmoid"], "attr": {"T": {"type": "DT_FLOAT"}}}, {"name": "PartitionedCall/model_21/tf.math.add_67/Add", "op": "_FusedConv2D", "input": ["PartitionedCall/model_21/tf.concat_14/concat", "unknown_116", "unknown_117"], "device": "/device:CPU:0", "attr": {"num_host_args": {"i": "0"}, "data_format": {"s": "TkhXQw=="}, "filter_format": {"s": "SFdJTw=="}, "strides": {"list": {"i": ["1", "1", "1", "1"]}}, "num_args": {"i": "1"}, "fused_ops": {"list": {"s": ["Qmlhc0FkZA=="]}}, "TArgs": {"list": {"type": ["DT_FLOAT"]}}, "padding": {"s": "U0FNRQ=="}, "use_cudnn_on_gpu": {"b": true}, "leakyrelu_alpha": {"f": 0.2}, "epsilon": {"f": 0.0}, "T": {"type": "DT_FLOAT"}, "explicit_paddings": {"list": {}}, "dilations": {"list": {"i": ["1", "1", "1", "1"]}}}}, {"name": "PartitionedCall/model_21/tf.math.add_68/Add", "op": "_FusedConv2D", "input": ["PartitionedCall/model_21/tf.math.multiply_203/Mul", "unknown_155", "unknown_160"], "device": "/device:CPU:0", "attr": {"num_host_args": {"i": "0"}, "data_format": {"s": "TkhXQw=="}, "filter_format": {"s": "SFdJTw=="}, "fused_ops": {"list": {"s": ["Qmlhc0FkZA=="]}}, "num_args": {"i": "1"}, "strides": {"list": {"i": ["1", "1", "1", "1"]}}, "TArgs": {"list": {"type": ["DT_FLOAT"]}}, "padding": {"s": "U0FNRQ=="}, "use_cudnn_on_gpu": {"b": true}, "leakyrelu_alpha": {"f": 0.2}, "epsilon": {"f": 0.0}, "T": {"type": "DT_FLOAT"}, "explicit_paddings": {"list": {}}, "dilations": {"list": {"i": ["1", "1", "1", "1"]}}}}, {"name": "PartitionedCall/model_21/tf.math.add_69/Add", "op": "_FusedConv2D", "input": ["PartitionedCall/model_21/tf.math.multiply_207/Mul", "unknown_154", "unknown_161"], "device": "/device:CPU:0", "attr": {"num_host_args": {"i": "0"}, "data_format": {"s": "TkhXQw=="}, "filter_format": {"s": "SFdJTw=="}, "strides": {"list": {"i": ["1", "1", "1", "1"]}}, "num_args": {"i": "1"}, "fused_ops": {"list": {"s": ["Qmlhc0FkZA=="]}}, "TArgs": {"list": {"type": ["DT_FLOAT"]}}, "padding": {"s": "U0FNRQ=="}, "use_cudnn_on_gpu": {"b": true}, "leakyrelu_alpha": {"f": 0.2}, "epsilon": {"f": 0.0}, "T": {"type": "DT_FLOAT"}, "explicit_paddings": {"list": {}}, "dilations": {"list": {"i": ["1", "1", "1", "1"]}}}}, {"name": "PartitionedCall/model_21/tf.math.sigmoid_49/Sigmoid", "op": "Sigmoid", "input": ["PartitionedCall/model_21/tf.math.add_67/Add"], "attr": {"T": {"type": "DT_FLOAT"}}}, {"name": "PartitionedCall/model_21/tf.concat_15/concat", "op": "ConcatV2", "input": ["PartitionedCall/model_21/tf.math.add_68/Add", "PartitionedCall/model_21/tf.math.add_69/Add", "PartitionedCall/model_21/tf.concat_15/concat/axis"], "attr": {"N": {"i": "2"}, "T": {"type": "DT_FLOAT"}, "Tidx": {"type": "DT_INT32"}}}, {"name": "PartitionedCall/model_21/tf.math.multiply_211/Mul", "op": "Mul", "input": ["PartitionedCall/model_21/tf.math.add_67/Add", "PartitionedCall/model_21/tf.math.sigmoid_49/Sigmoid"], "attr": {"T": {"type": "DT_FLOAT"}}}, {"name": "PartitionedCall/model_21/tf.compat.v1.transpose_69/transpose", "op": "Transpose", "input": ["PartitionedCall/model_21/tf.concat_15/concat", "PartitionedCall/model_21/tf.compat.v1.transpose_69/transpose/perm"], "attr": {"Tperm": {"type": "DT_INT32"}, "T": {"type": "DT_FLOAT"}}}, {"name": "PartitionedCall/model_21/tf.strided_slice_14/StridedSlice", "op": "StridedSlice", "input": ["PartitionedCall/model_21/tf.math.multiply_211/Mul", "unknown_124", "unknown_125", "PartitionedCall/model_21/tf.strided_slice_14/ones_like"], "attr": {"shrink_axis_mask": {"i": "0"}, "new_axis_mask": {"i": "0"}, "Index": {"type": "DT_INT64"}, "begin_mask": {"i": "15"}, "end_mask": {"i": "7"}, "T": {"type": "DT_FLOAT"}, "ellipsis_mask": {"i": "0"}}}, {"name": "PartitionedCall/model_21/tf.strided_slice_15/StridedSlice", "op": "StridedSlice", "input": ["PartitionedCall/model_21/tf.math.multiply_211/Mul", "unknown_118", "unknown_119", "PartitionedCall/model_21/tf.strided_slice_15/ones_like"], "attr": {"shrink_axis_mask": {"i": "0"}, "Index": {"type": "DT_INT64"}, "new_axis_mask": {"i": "0"}, "begin_mask": {"i": "7"}, "end_mask": {"i": "7"}, "T": {"type": "DT_FLOAT"}, "ellipsis_mask": {"i": "0"}}}, {"name": "PartitionedCall/model_21/tf.reshape_5/Reshape", "op": "Reshape", "input": ["PartitionedCall/model_21/tf.compat.v1.transpose_69/transpose", "PartitionedCall/model_21/tf.reshape_5/Reshape/shape"], "attr": {"T": {"type": "DT_FLOAT"}, "Tshape": {"type": "DT_INT32"}}}, {"name": "PartitionedCall/model_21/tf.math.add_70/Add", "op": "_FusedConv2D", "input": ["PartitionedCall/model_21/tf.strided_slice_15/StridedSlice", "unknown_120", "unknown_121"], "device": "/device:CPU:0", "attr": {"num_host_args": {"i": "0"}, "data_format": {"s": "TkhXQw=="}, "filter_format": {"s": "SFdJTw=="}, "strides": {"list": {"i": ["1", "1", "1", "1"]}}, "num_args": {"i": "1"}, "fused_ops": {"list": {"s": ["Qmlhc0FkZA=="]}}, "TArgs": {"list": {"type": ["DT_FLOAT"]}}, "padding": {"s": "U0FNRQ=="}, "use_cudnn_on_gpu": {"b": true}, "leakyrelu_alpha": {"f": 0.2}, "epsilon": {"f": 0.0}, "T": {"type": "DT_FLOAT"}, "explicit_paddings": {"list": {}}, "dilations": {"list": {"i": ["1", "1", "1", "1"]}}}}, {"name": "PartitionedCall/model_21/tf.math.sigmoid_50/Sigmoid", "op": "Sigmoid", "input": ["PartitionedCall/model_21/tf.math.add_70/Add"], "attr": {"T": {"type": "DT_FLOAT"}}}, {"name": "PartitionedCall/model_21/tf.math.multiply_215/Mul", "op": "Mul", "input": ["PartitionedCall/model_21/tf.math.add_70/Add", "PartitionedCall/model_21/tf.math.sigmoid_50/Sigmoid"], "attr": {"T": {"type": "DT_FLOAT"}}}, {"name": "PartitionedCall/model_21/tf.math.add_71/Add", "op": "_FusedConv2D", "input": ["PartitionedCall/model_21/tf.math.multiply_215/Mul", "unknown_122", "unknown_123"], "device": "/device:CPU:0", "attr": {"num_host_args": {"i": "0"}, "data_format": {"s": "TkhXQw=="}, "filter_format": {"s": "SFdJTw=="}, "fused_ops": {"list": {"s": ["Qmlhc0FkZA=="]}}, "num_args": {"i": "1"}, "strides": {"list": {"i": ["1", "1", "1", "1"]}}, "TArgs": {"list": {"type": ["DT_FLOAT"]}}, "padding": {"s": "U0FNRQ=="}, "use_cudnn_on_gpu": {"b": true}, "leakyrelu_alpha": {"f": 0.2}, "epsilon": {"f": 0.0}, "T": {"type": "DT_FLOAT"}, "explicit_paddings": {"list": {}}, "dilations": {"list": {"i": ["1", "1", "1", "1"]}}}}, {"name": "PartitionedCall/model_21/tf.math.sigmoid_51/Sigmoid", "op": "Sigmoid", "input": ["PartitionedCall/model_21/tf.math.add_71/Add"], "attr": {"T": {"type": "DT_FLOAT"}}}, {"name": "PartitionedCall/model_21/tf.math.multiply_219/Mul", "op": "Mul", "input": ["PartitionedCall/model_21/tf.math.add_71/Add", "PartitionedCall/model_21/tf.math.sigmoid_51/Sigmoid"], "attr": {"T": {"type": "DT_FLOAT"}}}, {"name": "PartitionedCall/model_21/tf.concat_16/concat", "op": "ConcatV2", "input": ["PartitionedCall/model_21/tf.strided_slice_14/StridedSlice", "PartitionedCall/model_21/tf.strided_slice_15/StridedSlice", "PartitionedCall/model_21/tf.math.multiply_219/Mul", "PartitionedCall/model_21/tf.concat_16/concat/axis"], "attr": {"N": {"i": "3"}, "T": {"type": "DT_FLOAT"}, "Tidx": {"type": "DT_INT32"}}}, {"name": "PartitionedCall/model_21/tf.math.add_72/Add", "op": "_FusedConv2D", "input": ["PartitionedCall/model_21/tf.concat_16/concat", "unknown_126", "unknown_128"], "device": "/device:CPU:0", "attr": {"num_host_args": {"i": "0"}, "data_format": {"s": "TkhXQw=="}, "filter_format": {"s": "SFdJTw=="}, "strides": {"list": {"i": ["1", "1", "1", "1"]}}, "num_args": {"i": "1"}, "fused_ops": {"list": {"s": ["Qmlhc0FkZA=="]}}, "TArgs": {"list": {"type": ["DT_FLOAT"]}}, "padding": {"s": "U0FNRQ=="}, "use_cudnn_on_gpu": {"b": true}, "leakyrelu_alpha": {"f": 0.2}, "epsilon": {"f": 0.0}, "T": {"type": "DT_FLOAT"}, "explicit_paddings": {"list": {}}, "dilations": {"list": {"i": ["1", "1", "1", "1"]}}}}, {"name": "PartitionedCall/model_21/tf.math.sigmoid_52/Sigmoid", "op": "Sigmoid", "input": ["PartitionedCall/model_21/tf.math.add_72/Add"], "attr": {"T": {"type": "DT_FLOAT"}}}, {"name": "PartitionedCall/model_21/tf.math.multiply_223/Mul", "op": "Mul", "input": ["PartitionedCall/model_21/tf.math.add_72/Add", "PartitionedCall/model_21/tf.math.sigmoid_52/Sigmoid"], "attr": {"T": {"type": "DT_FLOAT"}}}, {"name": "PartitionedCall/model_21/tf.math.add_73/Add", "op": "_FusedConv2D", "input": ["PartitionedCall/model_21/tf.math.multiply_223/Mul", "unknown_131", "unknown_136"], "device": "/device:CPU:0", "attr": {"num_host_args": {"i": "0"}, "data_format": {"s": "TkhXQw=="}, "filter_format": {"s": "SFdJTw=="}, "fused_ops": {"list": {"s": ["Qmlhc0FkZA=="]}}, "num_args": {"i": "1"}, "strides": {"list": {"i": ["1", "1", "1", "1"]}}, "TArgs": {"list": {"type": ["DT_FLOAT"]}}, "padding": {"s": "U0FNRQ=="}, "use_cudnn_on_gpu": {"b": true}, "leakyrelu_alpha": {"f": 0.2}, "epsilon": {"f": 0.0}, "T": {"type": "DT_FLOAT"}, "explicit_paddings": {"list": {}}, "dilations": {"list": {"i": ["1", "1", "1", "1"]}}}}, {"name": "PartitionedCall/model_21/tf.math.add_74/Add", "op": "_FusedConv2D", "input": ["PartitionedCall/model_21/tf.math.multiply_223/Mul", "unknown_130", "unknown_135"], "device": "/device:CPU:0", "attr": {"num_host_args": {"i": "0"}, "data_format": {"s": "TkhXQw=="}, "filter_format": {"s": "SFdJTw=="}, "strides": {"list": {"i": ["1", "1", "1", "1"]}}, "num_args": {"i": "1"}, "fused_ops": {"list": {"s": ["Qmlhc0FkZA=="]}}, "TArgs": {"list": {"type": ["DT_FLOAT"]}}, "padding": {"s": "U0FNRQ=="}, "use_cudnn_on_gpu": {"b": true}, "leakyrelu_alpha": {"f": 0.2}, "epsilon": {"f": 0.0}, "T": {"type": "DT_FLOAT"}, "explicit_paddings": {"list": {}}, "dilations": {"list": {"i": ["1", "1", "1", "1"]}}}}, {"name": "PartitionedCall/model_21/tf.math.sigmoid_53/Sigmoid", "op": "Sigmoid", "input": ["PartitionedCall/model_21/tf.math.add_73/Add"], "attr": {"T": {"type": "DT_FLOAT"}}}, {"name": "PartitionedCall/model_21/tf.math.sigmoid_54/Sigmoid", "op": "Sigmoid", "input": ["PartitionedCall/model_21/tf.math.add_74/Add"], "attr": {"T": {"type": "DT_FLOAT"}}}, {"name": "PartitionedCall/model_21/tf.math.multiply_227/Mul", "op": "Mul", "input": ["PartitionedCall/model_21/tf.math.add_73/Add", "PartitionedCall/model_21/tf.math.sigmoid_53/Sigmoid"], "attr": {"T": {"type": "DT_FLOAT"}}}, {"name": "PartitionedCall/model_21/tf.math.multiply_231/Mul", "op": "Mul", "input": ["PartitionedCall/model_21/tf.math.add_74/Add", "PartitionedCall/model_21/tf.math.sigmoid_54/Sigmoid"], "attr": {"T": {"type": "DT_FLOAT"}}}, {"name": "PartitionedCall/model_21/tf.math.add_75/Add", "op": "_FusedConv2D", "input": ["PartitionedCall/model_21/tf.math.multiply_227/Mul", "unknown_143", "unknown_148"], "device": "/device:CPU:0", "attr": {"num_host_args": {"i": "0"}, "data_format": {"s": "TkhXQw=="}, "filter_format": {"s": "SFdJTw=="}, "strides": {"list": {"i": ["1", "1", "1", "1"]}}, "num_args": {"i": "1"}, "fused_ops": {"list": {"s": ["Qmlhc0FkZA=="]}}, "TArgs": {"list": {"type": ["DT_FLOAT"]}}, "padding": {"s": "U0FNRQ=="}, "use_cudnn_on_gpu": {"b": true}, "leakyrelu_alpha": {"f": 0.2}, "epsilon": {"f": 0.0}, "T": {"type": "DT_FLOAT"}, "explicit_paddings": {"list": {}}, "dilations": {"list": {"i": ["1", "1", "1", "1"]}}}}, {"name": "PartitionedCall/model_21/tf.math.add_76/Add", "op": "_FusedConv2D", "input": ["PartitionedCall/model_21/tf.math.multiply_231/Mul", "unknown_142", "unknown_147"], "device": "/device:CPU:0", "attr": {"num_host_args": {"i": "0"}, "data_format": {"s": "TkhXQw=="}, "filter_format": {"s": "SFdJTw=="}, "fused_ops": {"list": {"s": ["Qmlhc0FkZA=="]}}, "num_args": {"i": "1"}, "strides": {"list": {"i": ["1", "1", "1", "1"]}}, "TArgs": {"list": {"type": ["DT_FLOAT"]}}, "padding": {"s": "U0FNRQ=="}, "use_cudnn_on_gpu": {"b": true}, "leakyrelu_alpha": {"f": 0.2}, "epsilon": {"f": 0.0}, "T": {"type": "DT_FLOAT"}, "explicit_paddings": {"list": {}}, "dilations": {"list": {"i": ["1", "1", "1", "1"]}}}}, {"name": "PartitionedCall/model_21/tf.math.sigmoid_55/Sigmoid", "op": "Sigmoid", "input": ["PartitionedCall/model_21/tf.math.add_75/Add"], "attr": {"T": {"type": "DT_FLOAT"}}}, {"name": "PartitionedCall/model_21/tf.math.sigmoid_56/Sigmoid", "op": "Sigmoid", "input": ["PartitionedCall/model_21/tf.math.add_76/Add"], "attr": {"T": {"type": "DT_FLOAT"}}}, {"name": "PartitionedCall/model_21/tf.math.multiply_235/Mul", "op": "Mul", "input": ["PartitionedCall/model_21/tf.math.add_75/Add", "PartitionedCall/model_21/tf.math.sigmoid_55/Sigmoid"], "attr": {"T": {"type": "DT_FLOAT"}}}, {"name": "PartitionedCall/model_21/tf.math.multiply_239/Mul", "op": "Mul", "input": ["PartitionedCall/model_21/tf.math.add_76/Add", "PartitionedCall/model_21/tf.math.sigmoid_56/Sigmoid"], "attr": {"T": {"type": "DT_FLOAT"}}}, {"name": "PartitionedCall/model_21/tf.math.add_77/Add", "op": "_FusedConv2D", "input": ["PartitionedCall/model_21/tf.math.multiply_235/Mul", "unknown_153", "unknown_158"], "device": "/device:CPU:0", "attr": {"num_host_args": {"i": "0"}, "data_format": {"s": "TkhXQw=="}, "filter_format": {"s": "SFdJTw=="}, "strides": {"list": {"i": ["1", "1", "1", "1"]}}, "num_args": {"i": "1"}, "fused_ops": {"list": {"s": ["Qmlhc0FkZA=="]}}, "TArgs": {"list": {"type": ["DT_FLOAT"]}}, "padding": {"s": "U0FNRQ=="}, "use_cudnn_on_gpu": {"b": true}, "leakyrelu_alpha": {"f": 0.2}, "epsilon": {"f": 0.0}, "T": {"type": "DT_FLOAT"}, "explicit_paddings": {"list": {}}, "dilations": {"list": {"i": ["1", "1", "1", "1"]}}}}, {"name": "PartitionedCall/model_21/tf.math.add_78/Add", "op": "_FusedConv2D", "input": ["PartitionedCall/model_21/tf.math.multiply_239/Mul", "unknown_152", "unknown_159"], "device": "/device:CPU:0", "attr": {"num_host_args": {"i": "0"}, "data_format": {"s": "TkhXQw=="}, "filter_format": {"s": "SFdJTw=="}, "fused_ops": {"list": {"s": ["Qmlhc0FkZA=="]}}, "num_args": {"i": "1"}, "strides": {"list": {"i": ["1", "1", "1", "1"]}}, "TArgs": {"list": {"type": ["DT_FLOAT"]}}, "padding": {"s": "U0FNRQ=="}, "use_cudnn_on_gpu": {"b": true}, "leakyrelu_alpha": {"f": 0.2}, "epsilon": {"f": 0.0}, "T": {"type": "DT_FLOAT"}, "explicit_paddings": {"list": {}}, "dilations": {"list": {"i": ["1", "1", "1", "1"]}}}}, {"name": "PartitionedCall/model_21/tf.concat_17/concat", "op": "ConcatV2", "input": ["PartitionedCall/model_21/tf.math.add_77/Add", "PartitionedCall/model_21/tf.math.add_78/Add", "PartitionedCall/model_21/tf.concat_17/concat/axis"], "attr": {"N": {"i": "2"}, "T": {"type": "DT_FLOAT"}, "Tidx": {"type": "DT_INT32"}}}, {"name": "PartitionedCall/model_21/tf.compat.v1.transpose_81/transpose", "op": "Transpose", "input": ["PartitionedCall/model_21/tf.concat_17/concat", "PartitionedCall/model_21/tf.compat.v1.transpose_81/transpose/perm"], "attr": {"Tperm": {"type": "DT_INT32"}, "T": {"type": "DT_FLOAT"}}}, {"name": "PartitionedCall/model_21/tf.reshape_8/Reshape", "op": "Reshape", "input": ["PartitionedCall/model_21/tf.compat.v1.transpose_81/transpose", "PartitionedCall/model_21/tf.reshape_8/Reshape/shape"], "attr": {"T": {"type": "DT_FLOAT"}, "Tshape": {"type": "DT_INT32"}}}, {"name": "PartitionedCall/model_21/tf.concat_18/concat", "op": "ConcatV2", "input": ["PartitionedCall/model_21/tf.reshape_2/Reshape", "PartitionedCall/model_21/tf.reshape_5/Reshape", "PartitionedCall/model_21/tf.reshape_8/Reshape", "PartitionedCall/model_21/tf.concat_18/concat/axis"], "attr": {"N": {"i": "3"}, "Tidx": {"type": "DT_INT32"}, "T": {"type": "DT_FLOAT"}}}, {"name": "PartitionedCall/model_21/tf.strided_slice_17/StridedSlice", "op": "StridedSlice", "input": ["PartitionedCall/model_21/tf.concat_18/concat", "PartitionedCall/model_21/tf.strided_slice_17/StridedSlice/begin", "PartitionedCall/model_21/tf.strided_slice_17/StridedSlice/end", "PartitionedCall/model_21/tf.strided_slice_17/ones_like"], "attr": {"shrink_axis_mask": {"i": "0"}, "new_axis_mask": {"i": "0"}, "Index": {"type": "DT_INT32"}, "begin_mask": {"i": "5"}, "T": {"type": "DT_FLOAT"}, "end_mask": {"i": "5"}, "ellipsis_mask": {"i": "0"}}}, {"name": "PartitionedCall/model_21/tf.strided_slice_16/StridedSlice", "op": "StridedSlice", "input": ["PartitionedCall/model_21/tf.concat_18/concat", "PartitionedCall/model_21/tf.strided_slice_16/StridedSlice/begin", "PartitionedCall/model_21/tf.strided_slice_16/StridedSlice/end", "PartitionedCall/model_21/tf.strided_slice_16/ones_like"], "attr": {"shrink_axis_mask": {"i": "0"}, "new_axis_mask": {"i": "0"}, "Index": {"type": "DT_INT32"}, "begin_mask": {"i": "5"}, "T": {"type": "DT_FLOAT"}, "end_mask": {"i": "5"}, "ellipsis_mask": {"i": "0"}}}, {"name": "PartitionedCall/model_21/tf.math.sigmoid_57/Sigmoid", "op": "Sigmoid", "input": ["PartitionedCall/model_21/tf.strided_slice_17/StridedSlice"], "attr": {"T": {"type": "DT_FLOAT"}}}, {"name": "PartitionedCall/model_21/tf.reshape_11/Reshape", "op": "Reshape", "input": ["PartitionedCall/model_21/tf.strided_slice_16/StridedSlice", "PartitionedCall/model_21/tf.reshape_11/Reshape/shape"], "attr": {"T": {"type": "DT_FLOAT"}, "Tshape": {"type": "DT_INT32"}}}, {"name": "PartitionedCall/model_21/tf.compat.v1.transpose_88/transpose", "op": "Transpose", "input": ["PartitionedCall/model_21/tf.reshape_11/Reshape", "PartitionedCall/model_21/tf.compat.v1.transpose_88/transpose/perm"], "attr": {"Tperm": {"type": "DT_INT32"}, "T": {"type": "DT_FLOAT"}}}, {"name": "PartitionedCall/model_21/tf.compat.v1.transpose_89/transpose", "op": "Transpose", "input": ["PartitionedCall/model_21/tf.compat.v1.transpose_88/transpose", "PartitionedCall/model_21/tf.compat.v1.transpose_89/transpose/perm"], "attr": {"Tperm": {"type": "DT_INT32"}, "T": {"type": "DT_FLOAT"}}}, {"name": "PartitionedCall/model_21/tf.nn.softmax/wa/model.22/dfl/Softmax", "op": "Softmax", "input": ["PartitionedCall/model_21/tf.compat.v1.transpose_89/transpose"], "attr": {"T": {"type": "DT_FLOAT"}}}, {"name": "PartitionedCall/model_21/tf.nn.convolution_67/convolution", "op": "Conv2D", "input": ["PartitionedCall/model_21/tf.nn.softmax/wa/model.22/dfl/Softmax", "unknown_164"], "device": "/device:CPU:0", "attr": {"padding": {"s": "U0FNRQ=="}, "data_format": {"s": "TkhXQw=="}, "use_cudnn_on_gpu": {"b": true}, "strides": {"list": {"i": ["1", "1", "1", "1"]}}, "T": {"type": "DT_FLOAT"}, "explicit_paddings": {"list": {}}, "dilations": {"list": {"i": ["1", "1", "1", "1"]}}}}, {"name": "PartitionedCall/model_21/tf.compat.v1.transpose_94/transpose", "op": "Transpose", "input": ["PartitionedCall/model_21/tf.nn.convolution_67/convolution", "PartitionedCall/model_21/tf.compat.v1.transpose_94/transpose/perm"], "attr": {"Tperm": {"type": "DT_INT32"}, "T": {"type": "DT_FLOAT"}}}, {"name": "PartitionedCall/model_21/tf.reshape_14/Reshape", "op": "Reshape", "input": ["PartitionedCall/model_21/tf.compat.v1.transpose_94/transpose", "PartitionedCall/model_21/tf.reshape_14/Reshape/shape"], "attr": {"T": {"type": "DT_FLOAT"}, "Tshape": {"type": "DT_INT32"}}}, {"name": "PartitionedCall/model_21/tf.strided_slice_19/StridedSlice", "op": "StridedSlice", "input": ["PartitionedCall/model_21/tf.reshape_14/Reshape", "unknown_165", "unknown_166", "PartitionedCall/model_21/tf.strided_slice_19/ones_like"], "attr": {"shrink_axis_mask": {"i": "0"}, "Index": {"type": "DT_INT64"}, "new_axis_mask": {"i": "0"}, "begin_mask": {"i": "5"}, "end_mask": {"i": "5"}, "T": {"type": "DT_FLOAT"}, "ellipsis_mask": {"i": "0"}}}, {"name": "PartitionedCall/model_21/tf.strided_slice_18/StridedSlice", "op": "StridedSlice", "input": ["PartitionedCall/model_21/tf.reshape_14/Reshape", "unknown_167", "unknown_168", "PartitionedCall/model_21/tf.strided_slice_18/ones_like"], "attr": {"shrink_axis_mask": {"i": "0"}, "new_axis_mask": {"i": "0"}, "Index": {"type": "DT_INT64"}, "begin_mask": {"i": "7"}, "end_mask": {"i": "5"}, "T": {"type": "DT_FLOAT"}, "ellipsis_mask": {"i": "0"}}}, {"name": "PartitionedCall/model_21/tf.math.add_79/Add", "op": "AddV2", "input": ["PartitionedCall/model_21/tf.strided_slice_19/StridedSlice", "unknown_169"], "attr": {"T": {"type": "DT_FLOAT"}}}, {"name": "PartitionedCall/model_21/tf.math.subtract/Sub", "op": "Sub", "input": ["unknown_170", "PartitionedCall/model_21/tf.strided_slice_18/StridedSlice"], "attr": {"T": {"type": "DT_FLOAT"}}}, {"name": "PartitionedCall/model_21/tf.math.add_80/Add", "op": "AddV2", "input": ["PartitionedCall/model_21/tf.math.subtract/Sub", "PartitionedCall/model_21/tf.math.add_79/Add"], "attr": {"T": {"type": "DT_FLOAT"}}}, {"name": "PartitionedCall/model_21/tf.math.subtract_1/Sub", "op": "Sub", "input": ["PartitionedCall/model_21/tf.math.add_79/Add", "PartitionedCall/model_21/tf.math.subtract/Sub"], "attr": {"T": {"type": "DT_FLOAT"}}}, {"name": "PartitionedCall/model_21/tf.math.divide/truediv", "op": "Mul", "input": ["PartitionedCall/model_21/tf.math.add_80/Add", "ConstantFolding/PartitionedCall/model_21/tf.math.divide/truediv_recip"], "attr": {"T": {"type": "DT_FLOAT"}}}, {"name": "PartitionedCall/model_21/tf.concat_22/concat", "op": "ConcatV2", "input": ["PartitionedCall/model_21/tf.math.divide/truediv", "PartitionedCall/model_21/tf.math.subtract_1/Sub", "PartitionedCall/model_21/tf.concat_22/concat/axis"], "attr": {"N": {"i": "2"}, "T": {"type": "DT_FLOAT"}, "Tidx": {"type": "DT_INT32"}}}, {"name": "PartitionedCall/model_21/tf.math.multiply_252/Mul", "op": "Mul", "input": ["PartitionedCall/model_21/tf.concat_22/concat", "PartitionedCall/model_21/tf.math.multiply_252/Mul/y"], "attr": {"T": {"type": "DT_FLOAT"}}}, {"name": "PartitionedCall/model_21/output0/concat", "op": "ConcatV2", "input": ["PartitionedCall/model_21/tf.math.multiply_252/Mul", "PartitionedCall/model_21/tf.math.sigmoid_57/Sigmoid", "PartitionedCall/model_21/output0/concat/axis"], "attr": {"N": {"i": "2"}, "T": {"type": "DT_FLOAT"}, "Tidx": {"type": "DT_INT32"}}}, {"name": "Identity", "op": "Identity", "input": ["PartitionedCall/model_21/output0/concat"], "attr": {"T": {"type": "DT_FLOAT"}}}], "library": {}, "versions": {"producer": 2129}}, "weightsManifest": [{"paths": ["group1-shard1of4.bin", "group1-shard2of4.bin", "group1-shard3of4.bin", "group1-shard4of4.bin"], "weights": [{"name": "ConstantFolding/PartitionedCall/model_21/tf.math.divide/truediv_recip", "shape": [], "dtype": "float32"}, {"name": "unknown_165", "shape": [3], "dtype": "int32"}, {"name": "unknown_166", "shape": [3], "dtype": "int32"}, {"name": "PartitionedCall/model_21/tf.strided_slice_19/ones_like", "shape": [3], "dtype": "int32"}, {"name": "unknown_169", "shape": [1, 2, 8400], "dtype": "float32"}, {"name": "unknown_170", "shape": [1, 2, 8400], "dtype": "float32"}, {"name": "PartitionedCall/model_21/tf.strided_slice_16/StridedSlice/begin", "shape": [3], "dtype": "int32"}, {"name": "PartitionedCall/model_21/tf.strided_slice_16/StridedSlice/end", "shape": [3], "dtype": "int32"}, {"name": "PartitionedCall/model_21/tf.strided_slice_16/ones_like", "shape": [3], "dtype": "int32"}, {"name": "PartitionedCall/model_21/tf.reshape_11/Reshape/shape", "shape": [4], "dtype": "int32"}, {"name": "PartitionedCall/model_21/tf.compat.v1.transpose_88/transpose/perm", "shape": [4], "dtype": "int32"}, {"name": "PartitionedCall/model_21/tf.compat.v1.transpose_89/transpose/perm", "shape": [4], "dtype": "int32"}, {"name": "unknown_164", "shape": [1, 1, 16, 1], "dtype": "float32"}, {"name": "PartitionedCall/model_21/tf.compat.v1.transpose_94/transpose/perm", "shape": [4], "dtype": "int32"}, {"name": "PartitionedCall/model_21/tf.reshape_14/Reshape/shape", "shape": [3], "dtype": "int32"}, {"name": "unknown_167", "shape": [3], "dtype": "int32"}, {"name": "unknown_168", "shape": [3], "dtype": "int32"}, {"name": "PartitionedCall/model_21/tf.strided_slice_18/ones_like", "shape": [3], "dtype": "int32"}, {"name": "PartitionedCall/model_21/tf.concat_22/concat/axis", "shape": [], "dtype": "int32"}, {"name": "PartitionedCall/model_21/tf.math.multiply_252/Mul/y", "shape": [1, 1, 8400], "dtype": "float32"}, {"name": "unknown_134", "shape": [3, 3, 64, 64], "dtype": "float32"}, {"name": "unknown_139", "shape": [64], "dtype": "float32"}, {"name": "unknown_146", "shape": [3, 3, 64, 64], "dtype": "float32"}, {"name": "unknown_151", "shape": [64], "dtype": "float32"}, {"name": "unknown_157", "shape": [1, 1, 64, 64], "dtype": "float32"}, {"name": "unknown_162", "shape": [64], "dtype": "float32"}, {"name": "unknown_127", "shape": [3, 3, 64, 80], "dtype": "float32"}, {"name": "unknown_129", "shape": [80], "dtype": "float32"}, {"name": "unknown_140", "shape": [3, 3, 80, 80], "dtype": "float32"}, {"name": "unknown_141", "shape": [80], "dtype": "float32"}, {"name": "unknown_156", "shape": [1, 1, 80, 80], "dtype": "float32"}, {"name": "unknown_163", "shape": [80], "dtype": "float32"}, {"name": "PartitionedCall/model_21/tf.concat_12/concat/axis", "shape": [], "dtype": "int32"}, {"name": "PartitionedCall/model_21/tf.compat.v1.transpose_55/transpose/perm", "shape": [4], "dtype": "int32"}, {"name": "PartitionedCall/model_21/tf.reshape_2/Reshape/shape", "shape": [3], "dtype": "int32"}, {"name": "unknown_133", "shape": [3, 3, 128, 64], "dtype": "float32"}, {"name": "unknown_138", "shape": [64], "dtype": "float32"}, {"name": "unknown_145", "shape": [3, 3, 64, 64], "dtype": "float32"}, {"name": "unknown_150", "shape": [64], "dtype": "float32"}, {"name": "unknown_155", "shape": [1, 1, 64, 64], "dtype": "float32"}, {"name": "unknown_160", "shape": [64], "dtype": "float32"}, {"name": "unknown_132", "shape": [3, 3, 128, 80], "dtype": "float32"}, {"name": "unknown_137", "shape": [80], "dtype": "float32"}, {"name": "unknown_144", "shape": [3, 3, 80, 80], "dtype": "float32"}, {"name": "unknown_149", "shape": [80], "dtype": "float32"}, {"name": "unknown_154", "shape": [1, 1, 80, 80], "dtype": "float32"}, {"name": "unknown_161", "shape": [80], "dtype": "float32"}, {"name": "PartitionedCall/model_21/tf.concat_15/concat/axis", "shape": [], "dtype": "int32"}, {"name": "PartitionedCall/model_21/tf.compat.v1.transpose_69/transpose/perm", "shape": [4], "dtype": "int32"}, {"name": "PartitionedCall/model_21/tf.reshape_5/Reshape/shape", "shape": [3], "dtype": "int32"}, {"name": "unknown_131", "shape": [3, 3, 256, 64], "dtype": "float32"}, {"name": "unknown_136", "shape": [64], "dtype": "float32"}, {"name": "unknown_143", "shape": [3, 3, 64, 64], "dtype": "float32"}, {"name": "unknown_148", "shape": [64], "dtype": "float32"}, {"name": "unknown_153", "shape": [1, 1, 64, 64], "dtype": "float32"}, {"name": "unknown_158", "shape": [64], "dtype": "float32"}, {"name": "unknown_124", "shape": [4], "dtype": "int32"}, {"name": "unknown_125", "shape": [4], "dtype": "int32"}, {"name": "PartitionedCall/model_21/tf.strided_slice_14/ones_like", "shape": [4], "dtype": "int32"}, {"name": "unknown_109", "shape": [4], "dtype": "int32"}, {"name": "unknown_110", "shape": [4], "dtype": "int32"}, {"name": "PartitionedCall/model_21/tf.strided_slice_12/ones_like", "shape": [4], "dtype": "int32"}, {"name": "unknown_94", "shape": [4], "dtype": "int32"}, {"name": "unknown_95", "shape": [4], "dtype": "int32"}, {"name": "PartitionedCall/model_21/tf.strided_slice_10/ones_like", "shape": [4], "dtype": "int32"}, {"name": "PartitionedCall/model_21/tf.image.resize_1/resize/size", "shape": [2], "dtype": "int32"}, {"name": "PartitionedCall/model_21/tf.concat_7/concat/axis", "shape": [], "dtype": "int32"}, {"name": "unknown_86", "shape": [1, 1, 192, 64], "dtype": "float32"}, {"name": "unknown_87", "shape": [64], "dtype": "float32"}, {"name": "unknown_88", "shape": [4], "dtype": "int32"}, {"name": "unknown_89", "shape": [4], "dtype": "int32"}, {"name": "PartitionedCall/model_21/tf.strided_slice_11/ones_like", "shape": [4], "dtype": "int32"}, {"name": "unknown_90", "shape": [3, 3, 32, 32], "dtype": "float32"}, {"name": "unknown_91", "shape": [32], "dtype": "float32"}, {"name": "unknown_92", "shape": [3, 3, 32, 32], "dtype": "float32"}, {"name": "unknown_93", "shape": [32], "dtype": "float32"}, {"name": "PartitionedCall/model_21/tf.concat_8/concat/axis", "shape": [], "dtype": "int32"}, {"name": "unknown_96", "shape": [1, 1, 96, 64], "dtype": "float32"}, {"name": "unknown_97", "shape": [64], "dtype": "float32"}, {"name": "unknown_98", "shape": [4, 2], "dtype": "int32"}, {"name": "unknown_99", "shape": [3, 3, 64, 64], "dtype": "float32"}, {"name": "unknown_100", "shape": [64], "dtype": "float32"}, {"name": "unknown_82", "shape": [4], "dtype": "int32"}, {"name": "unknown_83", "shape": [4], "dtype": "int32"}, {"name": "PartitionedCall/model_21/tf.strided_slice_8/ones_like", "shape": [4], "dtype": "int32"}, {"name": "PartitionedCall/model_21/tf.image.resize/resize/size", "shape": [2], "dtype": "int32"}, {"name": "PartitionedCall/model_21/tf.concat_5/concat/axis", "shape": [], "dtype": "int32"}, {"name": "unknown_74", "shape": [1, 1, 384, 128], "dtype": "float32"}, {"name": "unknown_75", "shape": [128], "dtype": "float32"}, {"name": "unknown_76", "shape": [4], "dtype": "int32"}, {"name": "unknown_77", "shape": [4], "dtype": "int32"}, {"name": "PartitionedCall/model_21/tf.strided_slice_9/ones_like", "shape": [4], "dtype": "int32"}, {"name": "unknown_78", "shape": [3, 3, 64, 64], "dtype": "float32"}, {"name": "unknown_79", "shape": [64], "dtype": "float32"}, {"name": "unknown_80", "shape": [3, 3, 64, 64], "dtype": "float32"}, {"name": "unknown_81", "shape": [64], "dtype": "float32"}, {"name": "PartitionedCall/model_21/tf.concat_6/concat/axis", "shape": [], "dtype": "int32"}, {"name": "unknown_84", "shape": [1, 1, 192, 128], "dtype": "float32"}, {"name": "unknown_85", "shape": [128], "dtype": "float32"}, {"name": "PartitionedCall/model_21/tf.concat_9/concat/axis", "shape": [], "dtype": "int32"}, {"name": "unknown_101", "shape": [1, 1, 192, 128], "dtype": "float32"}, {"name": "unknown_102", "shape": [128], "dtype": "float32"}, {"name": "unknown_103", "shape": [4], "dtype": "int32"}, {"name": "unknown_104", "shape": [4], "dtype": "int32"}, {"name": "PartitionedCall/model_21/tf.strided_slice_13/ones_like", "shape": [4], "dtype": "int32"}, {"name": "unknown_105", "shape": [3, 3, 64, 64], "dtype": "float32"}, {"name": "unknown_106", "shape": [64], "dtype": "float32"}, {"name": "unknown_107", "shape": [3, 3, 64, 64], "dtype": "float32"}, {"name": "unknown_108", "shape": [64], "dtype": "float32"}, {"name": "PartitionedCall/model_21/tf.concat_13/concat/axis", "shape": [], "dtype": "int32"}, {"name": "unknown_111", "shape": [1, 1, 192, 128], "dtype": "float32"}, {"name": "unknown_112", "shape": [128], "dtype": "float32"}, {"name": "unknown_113", "shape": [4, 2], "dtype": "int32"}, {"name": "unknown_114", "shape": [3, 3, 128, 128], "dtype": "float32"}, {"name": "unknown_115", "shape": [128], "dtype": "float32"}, {"name": "unknown_66", "shape": [4], "dtype": "int32"}, {"name": "unknown_67", "shape": [4], "dtype": "int32"}, {"name": "PartitionedCall/model_21/tf.strided_slice_6/ones_like", "shape": [4], "dtype": "int32"}, {"name": "unknown_51", "shape": [4], "dtype": "int32"}, {"name": "unknown_52", "shape": [4], "dtype": "int32"}, {"name": "PartitionedCall/model_21/tf.strided_slice_4/ones_like", "shape": [4], "dtype": "int32"}, {"name": "unknown_32", "shape": [4], "dtype": "int32"}, {"name": "unknown_33", "shape": [4], "dtype": "int32"}, {"name": "PartitionedCall/model_21/tf.strided_slice_2/ones_like", "shape": [4], "dtype": "int32"}, {"name": "unknown_13", "shape": [4], "dtype": "int32"}, {"name": "unknown_14", "shape": [4], "dtype": "int32"}, {"name": "PartitionedCall/model_21/tf.strided_slice/ones_like", "shape": [4], "dtype": "int32"}, {"name": "unknown", "shape": [4, 2], "dtype": "int32"}, {"name": "unknown_0", "shape": [3, 3, 3, 16], "dtype": "float32"}, {"name": "unknown_1", "shape": [16], "dtype": "float32"}, {"name": "unknown_2", "shape": [4, 2], "dtype": "int32"}, {"name": "unknown_3", "shape": [3, 3, 16, 32], "dtype": "float32"}, {"name": "unknown_4", "shape": [32], "dtype": "float32"}, {"name": "unknown_5", "shape": [1, 1, 32, 32], "dtype": "float32"}, {"name": "unknown_6", "shape": [32], "dtype": "float32"}, {"name": "unknown_7", "shape": [4], "dtype": "int32"}, {"name": "unknown_8", "shape": [4], "dtype": "int32"}, {"name": "PartitionedCall/model_21/tf.strided_slice_1/ones_like", "shape": [4], "dtype": "int32"}, {"name": "unknown_9", "shape": [3, 3, 16, 16], "dtype": "float32"}, {"name": "unknown_10", "shape": [16], "dtype": "float32"}, {"name": "unknown_11", "shape": [3, 3, 16, 16], "dtype": "float32"}, {"name": "unknown_12", "shape": [16], "dtype": "float32"}, {"name": "PartitionedCall/model_21/tf.concat/concat/axis", "shape": [], "dtype": "int32"}, {"name": "unknown_15", "shape": [1, 1, 48, 32], "dtype": "float32"}, {"name": "unknown_16", "shape": [32], "dtype": "float32"}, {"name": "unknown_17", "shape": [4, 2], "dtype": "int32"}, {"name": "unknown_18", "shape": [3, 3, 32, 64], "dtype": "float32"}, {"name": "unknown_19", "shape": [64], "dtype": "float32"}, {"name": "unknown_20", "shape": [1, 1, 64, 64], "dtype": "float32"}, {"name": "unknown_21", "shape": [64], "dtype": "float32"}, {"name": "unknown_22", "shape": [4], "dtype": "int32"}, {"name": "unknown_23", "shape": [4], "dtype": "int32"}, {"name": "PartitionedCall/model_21/tf.strided_slice_3/ones_like", "shape": [4], "dtype": "int32"}, {"name": "unknown_24", "shape": [3, 3, 32, 32], "dtype": "float32"}, {"name": "unknown_25", "shape": [32], "dtype": "float32"}, {"name": "unknown_26", "shape": [3, 3, 32, 32], "dtype": "float32"}, {"name": "unknown_27", "shape": [32], "dtype": "float32"}, {"name": "unknown_28", "shape": [3, 3, 32, 32], "dtype": "float32"}, {"name": "unknown_29", "shape": [32], "dtype": "float32"}, {"name": "unknown_30", "shape": [3, 3, 32, 32], "dtype": "float32"}, {"name": "unknown_31", "shape": [32], "dtype": "float32"}, {"name": "PartitionedCall/model_21/tf.concat_1/concat/axis", "shape": [], "dtype": "int32"}, {"name": "unknown_34", "shape": [1, 1, 128, 64], "dtype": "float32"}, {"name": "unknown_35", "shape": [64], "dtype": "float32"}, {"name": "unknown_36", "shape": [4, 2], "dtype": "int32"}, {"name": "unknown_37", "shape": [3, 3, 64, 128], "dtype": "float32"}, {"name": "unknown_38", "shape": [128], "dtype": "float32"}, {"name": "unknown_39", "shape": [1, 1, 128, 128], "dtype": "float32"}, {"name": "unknown_40", "shape": [128], "dtype": "float32"}, {"name": "unknown_41", "shape": [4], "dtype": "int32"}, {"name": "unknown_42", "shape": [4], "dtype": "int32"}, {"name": "PartitionedCall/model_21/tf.strided_slice_5/ones_like", "shape": [4], "dtype": "int32"}, {"name": "unknown_43", "shape": [3, 3, 64, 64], "dtype": "float32"}, {"name": "unknown_44", "shape": [64], "dtype": "float32"}, {"name": "unknown_45", "shape": [3, 3, 64, 64], "dtype": "float32"}, {"name": "unknown_46", "shape": [64], "dtype": "float32"}, {"name": "unknown_47", "shape": [3, 3, 64, 64], "dtype": "float32"}, {"name": "unknown_48", "shape": [64], "dtype": "float32"}, {"name": "unknown_49", "shape": [3, 3, 64, 64], "dtype": "float32"}, {"name": "unknown_50", "shape": [64], "dtype": "float32"}, {"name": "PartitionedCall/model_21/tf.concat_2/concat/axis", "shape": [], "dtype": "int32"}, {"name": "unknown_53", "shape": [1, 1, 256, 128], "dtype": "float32"}, {"name": "unknown_54", "shape": [128], "dtype": "float32"}, {"name": "unknown_55", "shape": [4, 2], "dtype": "int32"}, {"name": "unknown_56", "shape": [3, 3, 128, 256], "dtype": "float32"}, {"name": "unknown_57", "shape": [256], "dtype": "float32"}, {"name": "unknown_58", "shape": [1, 1, 256, 256], "dtype": "float32"}, {"name": "unknown_59", "shape": [256], "dtype": "float32"}, {"name": "unknown_60", "shape": [4], "dtype": "int32"}, {"name": "unknown_61", "shape": [4], "dtype": "int32"}, {"name": "PartitionedCall/model_21/tf.strided_slice_7/ones_like", "shape": [4], "dtype": "int32"}, {"name": "unknown_62", "shape": [3, 3, 128, 128], "dtype": "float32"}, {"name": "unknown_63", "shape": [128], "dtype": "float32"}, {"name": "unknown_64", "shape": [3, 3, 128, 128], "dtype": "float32"}, {"name": "unknown_65", "shape": [128], "dtype": "float32"}, {"name": "PartitionedCall/model_21/tf.concat_3/concat/axis", "shape": [], "dtype": "int32"}, {"name": "unknown_68", "shape": [1, 1, 384, 256], "dtype": "float32"}, {"name": "unknown_69", "shape": [256], "dtype": "float32"}, {"name": "unknown_70", "shape": [1, 1, 256, 128], "dtype": "float32"}, {"name": "unknown_71", "shape": [128], "dtype": "float32"}, {"name": "PartitionedCall/model_21/tf.concat_4/concat/axis", "shape": [], "dtype": "int32"}, {"name": "unknown_72", "shape": [1, 1, 512, 256], "dtype": "float32"}, {"name": "unknown_73", "shape": [256], "dtype": "float32"}, {"name": "PartitionedCall/model_21/tf.concat_14/concat/axis", "shape": [], "dtype": "int32"}, {"name": "unknown_116", "shape": [1, 1, 384, 256], "dtype": "float32"}, {"name": "unknown_117", "shape": [256], "dtype": "float32"}, {"name": "unknown_118", "shape": [4], "dtype": "int32"}, {"name": "unknown_119", "shape": [4], "dtype": "int32"}, {"name": "PartitionedCall/model_21/tf.strided_slice_15/ones_like", "shape": [4], "dtype": "int32"}, {"name": "unknown_120", "shape": [3, 3, 128, 128], "dtype": "float32"}, {"name": "unknown_121", "shape": [128], "dtype": "float32"}, {"name": "unknown_122", "shape": [3, 3, 128, 128], "dtype": "float32"}, {"name": "unknown_123", "shape": [128], "dtype": "float32"}, {"name": "PartitionedCall/model_21/tf.concat_16/concat/axis", "shape": [], "dtype": "int32"}, {"name": "unknown_126", "shape": [1, 1, 384, 256], "dtype": "float32"}, {"name": "unknown_128", "shape": [256], "dtype": "float32"}, {"name": "unknown_130", "shape": [3, 3, 256, 80], "dtype": "float32"}, {"name": "unknown_135", "shape": [80], "dtype": "float32"}, {"name": "unknown_142", "shape": [3, 3, 80, 80], "dtype": "float32"}, {"name": "unknown_147", "shape": [80], "dtype": "float32"}, {"name": "unknown_152", "shape": [1, 1, 80, 80], "dtype": "float32"}, {"name": "unknown_159", "shape": [80], "dtype": "float32"}, {"name": "PartitionedCall/model_21/tf.concat_17/concat/axis", "shape": [], "dtype": "int32"}, {"name": "PartitionedCall/model_21/tf.compat.v1.transpose_81/transpose/perm", "shape": [4], "dtype": "int32"}, {"name": "PartitionedCall/model_21/tf.reshape_8/Reshape/shape", "shape": [3], "dtype": "int32"}, {"name": "PartitionedCall/model_21/tf.concat_18/concat/axis", "shape": [], "dtype": "int32"}, {"name": "PartitionedCall/model_21/tf.strided_slice_17/StridedSlice/begin", "shape": [3], "dtype": "int32"}, {"name": "PartitionedCall/model_21/tf.strided_slice_17/StridedSlice/end", "shape": [3], "dtype": "int32"}, {"name": "PartitionedCall/model_21/tf.strided_slice_17/ones_like", "shape": [3], "dtype": "int32"}, {"name": "PartitionedCall/model_21/output0/concat/axis", "shape": [], "dtype": "int32"}]}]}